all_ep_199_mae_40.2_mse_61.7.pth (torch, 544407 bytes, 25 tensors)

CCN.module.branch1.0.conv.weight f4 [16, 3, 9, 9]
00000000: 1024 3b3b a8e0 62bc 1d96 fc3a 4e90 153b
00000010: 1d4d f239 fa48 663b df99 d03b defe 1a3b
00000020: deef 213c 44e7 b4bc 7743 ed3b db58 36bb
00000030: 9c64 db3c c362 6c3c ca5c 263c c47f c33b
00000040: 2a86 bbbb ba08 81b9 d90c c4bb e6d1 afbb
00000050: 272b 9abc 7f14 e0bb a76f 8c3b d12e 3f3c
00000060: 57cf 6e3c 875c 45ba 0933 a6bb cd54 01bb
00000070: 441e 7abb 98f6 f5bb ffab 3ebb 053e 4bbb
00000080: 51ba 733c d551 5a3c e892 2b3c 6233 febb
00000090: ed37 7ebb bd5b 98bb ae76 edbb d095 b2bc
000000a0: 9ae4 613a 713f ff3c 5dc3 debb e707 3e3c
000000b0: 7992 063a 03bf 31bc 63a2 b0bb 83e2 0d3b
000000c0: 16e6 8ebb cf6b 573c 3884 b23c 2062 f63c
000000d0: e3e5 fa3b 414e bc3a b4cb 8e39 303a bdbb
000000e0: 3d55 653a d36c 80bc 5467 a13b 0e08 043c
000000f0: ab1c a93b e8f6 063b 7a9d 9d3b c443 be3a
00000100: d8b0 e4bb 3241 1bbc 8c13 f6bb 28ab 963c
00000110: 1d6c 3e3a f8bb a5bc 5fdb ea3c 97ae 873b
00000120: bc22 3b3c 8b68 a5bb a933 20bb 71be 89bb
00000130: e4e6 1ebc c993 d83b abc6 e63b 6aa0 783c
00000140: 1e95 3a3c ebbc 75ba 8a74 7fbb 137e 9b3a
00000150: 5fd5 183c 31cd 243c 253f 16bc d261 2fbc
00000160: 8480 8dbc ab6a 45bb c019 e7ba 5587 bbb9
00000170: f43a 57bc 151b b5bc 2765 703b 6d82 c73c
00000180: 3936 15bc cafd a8bb bc6c 84bb 6096 c53b
00000190: a33f e5bb 8c3f 00bc d3a8 08bb ed71 303b
000001a0: 6953 543c d99c 033c ea61 5abc 08fc b3bb
000001b0: e26d 72ba de25 09bc 24d8 99ba 799a 03bc
000001c0: 973c af3a d73a 203c e5a5 a7bb ff17 60bc
000001d0: c5cb fbbb e825 a9bb 1a32 f6bb a110 05bc
000001e0: b5cb d1bc 4b6d a1ba 1c2e 373c e4ea bc3b
000001f0: ce91 83bc ebde 7438 00c6 60bc 2266 933b
00000200: a878 44bc 4b83 ecbc d122 fcbb 55c6 c73a
00000210: c233 ec3a a926 723b 7ab8 04bc c02a 8a3a
00000220: 8b42 febb 62a0 fabb cd75 70b9 e29f 85bc
00000230: 1dc6 1fbc 18dc 5dbc 553b c33c d1b7 d73b
00000240: 34b0 2cbc 5823 98bc 8c9b b9ba a7e6 04bc
00000250: ef15 6db9 8155 5abb 6274 373a f62b b93b
00000260: c9fd 663c fd2c 9bbc a709 0b3c 29f9 14bc
00000270: bd05 e2bc 8be5 b8bc 0509 54bb c215 e53a
00000280: 8f3f 433b 5ed4 a0bb 6471 d9bb 12a2 9abc
00000290: 2106 f73b 7948 323c 45c0 893b e53e 613b
000002a0: faaf cebb efc6 d73a 5f00 093c ae9c 5ebb
000002b0: 3888 16bb accd 363b c8ad bf3b 4d0c 56ba
000002c0: 6d3c 173c 4390 67bc e350 14bc 0b2e 0d3c
000002d0: 5dd9 6abb ad0b 05bc 238b afbb 0379 783a
000002e0: ec6c 4c3b a87a 0e3c 28d4 45bb 7d35 c63a
000002f0: da3a 213c ec43 bebb 84b3 9cbb f9ac 4bbb
00000300: a25c 47bc 3d3a 10ba 4b81 de3c 6107 aa3c
00000310: ca53 56bc ac04 b23c 1cce 25bb eb6c a7bb
00000320: b728 babc c6ee 0bbb 7a42 323c c207 f13c
00000330: 3d78 af3a e081 2c3c 8f3f 523c 7218 24bb
00000340: 9676 69bb 1315 c6bc f7e0 1dbc 60e4 7b3c
00000350: 7183 b33c dff9 5bbc 003a 9a3c 1da9 7d3b
00000360: 8f90 c3ba 12d3 abbb 1c8f b23b 02c9 c9bc
00000370: 6925 0a3b 7daa 31ba 4ffe 5f3c 9d5a 553c
00000380: 70ac e23c 0413 253c 30d9 0bbc 7a39 113c
00000390: c09e c8bc 3f35 0f3c 8258 3ebb 8a38 a63a
000003a0: 80c3 713c e36a 333c cf9a 873b bdb0 5f3b
000003b0: 2fae 883c 2a9d 1c3b 6c76 ab3b 69cd 893c
000003c0: 209b 943c 2f41 923b aa6e 70bb ea95 a53a
000003d0: b180 153a 97fd 40bc 8c0b 9539 9c0b ec3b
000003e0: 99b2 3c3b 4488 163c 0fe7 8cbb 794b 1d3b
000003f0: e7c7 ccbb 09a1 c5bb 5b92 19bc a0eb 3e3a
0.002855543 -0.013847508 0.0019270811 0.0022821608 0.0004621529 0.0035138712 0.006365999 0.0023650448
0.009883849 -0.022082932 0.0072407085 -0.0027823958 0.026781373 0.0144278435 0.010153959 0.0059661586
-0.0057227807 -0.000246113 -0.005982977 -0.005365598 -0.018819405 -0.006838381 0.004285771 0.011668877
0.014575801 -0.0007528741 -0.005072002 -0.0019734383 -0.0038165012 -0.007506203 -0.0029094217 -0.0031012308
0.014875964 0.013325174 0.010472037 -0.00775759 -0.0038790659 -0.004649608 -0.0072468137 -0.021799952
0.0008617133 0.03115818 -0.0067981915 0.011598564 0.00051335205 -0.010848763 -0.0053904518 0.0021649904
-0.0043609245 0.013148262 0.021791562 0.030076087 0.007656799 0.0014366583 0.0002723612 -0.0057747588
0.0008748358 -0.015676891 0.0049256478 0.008058561 0.005160888 0.0020593945 0.0048100324 0.0014516045
-0.006979089 -0.009475993 -0.0075096544 0.01839216 0.0007264035 -0.020231232 0.028669057 0.004140686
0.011421856 -0.005047863 -0.0024444854 -0.0042036106 -0.009698603 0.0066094142 0.007042726 0.015174964
0.011388091 -0.0009374159 -0.0038979375 0.0011863135 0.009328215 0.010058687 -0.009170328 -0.0107044745
-0.017273195 -0.0030123394 -0.0017631575 -0.0003576825 -0.013136614 -0.02210764 0.0036681385 0.024354184
-0.009107166 -0.005157207 -0.0040412825 0.006029889 -0.0069961115 -0.007827651 -0.002085258 0.0026923374
0.01295934 0.008033001 -0.013329009 -0.005492691 -0.0009247941 -0.008370845 -0.0011737389 -0.008032435
0.0013369498 0.0097796535 -0.0051162117 -0.013677596 -0.0076842033 -0.0051619895 -0.007513297 -0.00812164
-0.02560983 -0.0012315897 0.011180427 0.005765306 -0.016060736 5.8381742e-05 -0.013719082 0.004498259
-0.011991657 -0.0288712 -0.00769458 0.0015241603 0.0018020796 0.0036949313 -0.008100623 0.0010541305
-0.0077593974 -0.0076485137 -0.00022932068 -0.01631159 -0.009751824 -0.013541244 0.023832003 0.006583192
-0.010540057 -0.01857154 -0.0014160736 -0.008111632 -0.00022610252 -0.0033315124 0.00069982384 0.0056509925
0.014098593 -0.01894235 0.008486188 -0.009092608 -0.027590627 -0.022570392 -0.003235401 0.0017477798
0.0029792523 -0.0049081286 -0.0066358317 -0.01887611 0.0075385724 0.010881537 0.0042038285 0.0034369763
-0.006307599 0.0016462485 0.008361905 -0.00339679 -0.0022969376 0.0027893586 0.0058495738 -0.0008165285
0.009230715 -0.014133516 -0.009052488 0.0086169345 -0.0035835125 -0.0081204595 -0.0053571626 0.00094784814
0.0031192852 0.008696236 -0.003018627 0.0015122142 0.009840691 -0.0058064368 -0.004782142 -0.0031078442
-0.0121680815 -0.0005501842 0.027161261 0.020755472 -0.0130815 0.021730743 -0.0025299853 -0.0051094196
-0.022724492 -0.0021352037 0.010880107 0.029422645 0.0013387274 0.0105290115 0.012832536 -0.0025038985
-0.0035623661 -0.02417997 -0.009636155 0.015374273 0.021913262 -0.013426273 0.018826485 0.0038705536
-0.0014920401 -0.0052436674 0.005449189 -0.02463198 0.0021079427 -0.0006777419 0.013671472 0.013022092
0.027670115 0.010075334 -0.008535668 0.008863801 -0.02448976 0.008740722 -0.0029044454 0.0012681645
0.0147560835 0.010950777 0.0041383277 0.0034132444 0.01668462 0.0023897388 0.005232623 0.01682158
0.018140376 0.004463337 -0.0036687055 0.0012633179 0.00057030754 -0.0117792105 0.00028428098 0.0072035324
0.0028792976 0.009187762 -0.0043000053 0.0024001284 -0.006249416 -0.00603116 -0.009373273 0.00072830357

CCN.module.branch1.0.conv.bias f4 [16]
00000000: 4f17 3cba 63d4 4cbb 1625 39bb 3856 fbbb
00000010: dda2 c3bb f182 a43c f692 223c c72b c3bb
00000020: b82e 1d3c e147 90bb 0dde 9dbb 9afa cfbb
00000030: a65b d1bb 71a3 1cbc ec91 1ebc ae92 1ebb
-0.0007175104 -0.0031254522 -0.0028250865 -0.00767019 -0.0059703426 0.020081969 0.0099227335 -0.0059561464
0.009593658 -0.0044031 -0.0048177303 -0.0063470127 -0.006389099 -0.009560452 -0.009678345 -0.0024196315

CCN.module.branch1.2.conv.weight f4 [32, 16, 7, 7]
00000000: 92a4 f9bb 0773 beba aa7a f2bb 9d1f f73a
00000010: 32ad 0a3c 906a 643c 510e 25bb 68a0 da3b
00000020: 0d4c 713c c322 c5bb 1bec 8e3b 5783 0dbc
00000030: cbe2 7f3b 9023 acbb 8fb6 bfbb 7698 1c3c
00000040: 703d 363c cb31 bd3a 4410 c03a fbe0 8a3b
00000050: 9c52 6d3c d0a7 8f3c 22c4 a73b 642d ad3b
00000060: de9a 943c b1ee 7b3a 065e 00bc 0e59 b639
00000070: 439e 733b 89d3 373c 0ae0 ec3b 7b22 253c
00000080: 2567 273c 5ae4 b33b 5576 6aba 78f8 c33b
00000090: 97b7 483c 4259 f33b 9ad4 9d3c 7a3e e6bb
000000a0: 4d78 7cb8 f127 623c 8257 bb3b 45e7 173c
000000b0: 8c94 bc3c 7991 a63a cbcc 173c 1bee 3c3c
000000c0: 213f d13b f193 223a ba89 cc3b 35ee 8b3b
000000d0: c905 fa3a c757 9fba 30da 9c3b 2bbf eb3b
000000e0: 48f4 0bbb ce22 4c3b 46bf 183c 25ce 8abb
000000f0: f5e2 923a 3959 933b b9dc 343c e967 9b3b
00000100: 9679 e3bb ed6e 733b ed1b 0c3b fd99 9bba
00000110: eb2e d03b bc80 1f3c 3fac 983c da59 533b
00000120: 98fb af3a 572f 32bb 68ea 3ebb 163c 243c
00000130: 00ee 993a e08d b73b edbf 873b e58d 263c
00000140: 3870 143c 818b 963b 1007 193b 2b6e 2d3c
00000150: f831 593a fd32 14bb d901 1a3c bc9b fa3a
00000160: 9f6b 5a3c b7b1 6c3c 807f 4a3b 6b02 183a
00000170: df2d df3b b8a8 9f3b 2a61 8d3c 7c4a 1c3c
00000180: 7528 5e3c d50a 2b3b e815 dc3a d597 1a3c
00000190: 6c8f 8a3a 20c9 203c 99bb e6ba 3db7 95ba
000001a0: 180f 3c3b c86c 643b d337 ea3b 27b8 6b3c
000001b0: 93b2 f73b 9fc2 d8bb 6c15 763b c14d 863b
000001c0: ad71 103c 8e77 593b cc73 2d3b f34f 2bbb
000001d0: 61e3 cd3a e8ac 643b 3a55 da3b 2340 cd3b
000001e0: df37 9b3b 8220 0abc db36 1a3c ef54 5bb9
000001f0: e680 b138 a148 403b d9ea 7d3b a3d7 c83b
00000200: a48b a93b bdbf 8d3c dd60 7f3b 751e aa3b
00000210: 994c 343c d215 003c 0760 443c e139 bf3b
00000220: c0f1 243b 84f2 3cba 3ef6 f5ba 6ba5 523b
00000230: e12d 0d3c d7ee c03b 1dcc e43b 7e9e d73b
00000240: ae30 b23a 47b6 503c 972f 443c e400 be3a
00000250: b434 663b 1bc5 a53b b0d9 433b ee62 183c
00000260: d7cf 4a3b ad95 2f3c e4fc 153c 925c dbb8
00000270: fb33 84bb 565e 82bb f339 daba f515 843c
00000280: 6fac 163b 5240 8339 ff4e 143b 382b 953b
00000290: ac6b b93b e1cb c939 2617 8cb9 62cc 463c
000002a0: 66f9 bf3b 0983 4c3c f8ea 303c 9048 2c3c
000002b0: a220 933b 7ada 0b3a 0886 a33b 6e47 ce3b
000002c0: 3231 d73b 8c55 a93b b08c 913c 4ee6 193c
000002d0: 8b2c dcba b179 c538 0563 d43b 6ecd c03b
000002e0: bbc1 e53b 42e3 303c 54d5 8a3c b25b 333c
000002f0: 8782 393c ffee 323c 8598 893c 4896 ed3b
00000300: 8d16 6d3c 4b89 563c c4ce 8b3c 99f9 463c
00000310: b00a 4b3b c063 063b f755 ec3b 0599 6a3c
00000320: b1e3 8d3b fd2e 6a3b 8025 a73b 4d9b 1f3c
00000330: 853c bd38 fc83 8b3b 3f3e d93b 5a6c 303c
00000340: 153c 813c e516 2a3c f219 013c 65cc 0f3c
00000350: 2421 013c 6445 ba3b c1b2 723c ff79 0d3c
00000360: c470 eb3b a7c5 9c3b aa7c ba3a b92b ad3b
00000370: dd47 893b f04c 833c 0a8f c33a 580b e13b
00000380: 1d85 d43b f923 b1ba c84a 173c ce6c 053c
00000390: e798 2d3c 827d 54bb 13d9 d53b 9323 ac3b
000003a0: d481 063c ee2d 8f3c 3aa5 e13b fa6a 153c
000003b0: 2383 983a 0907 983b d92e a73b 84a9 803b
000003c0: 3419 d13b 6fe6 193c 11ea b63b 6e5e 9b3b
000003d0: b0db a33b 67a6 f83b 1079 bdbb d8fc b5bb
000003e0: 0dea 2b3a 9cc9 04bc 913d 26bc 244d 51ba
000003f0: eca4 22bc c680 9bbb 04e1 d4bb 5d9c 8bbb
-0.0076184953 -0.001453013 -0.0073998766 0.0018854026 0.008464145 0.013941422 -0.0025185535 0.006671954
0.014727605 -0.006016107 0.004361642 -0.008637271 0.0039045091 -0.005253263 -0.00585062 0.009557834
0.011123046 0.0014434395 0.0014653285 0.0042382455 0.014485028 0.017536074 0.0051198164 0.005284952
0.018140253 0.0009610458 -0.007834917 0.00034780096 0.0037173189 0.0112198675 0.007228856 0.010079022
0.010217463 0.005489868 -0.00089440244 0.0059805475 0.0122508025 0.007426412 0.019266415 -0.0070264908
-6.019352e-05 0.013803468 0.005717219 0.009271448 0.023020051 0.0012708149 0.009265135 0.011531378
0.0063856994 0.00062018546 0.006242004 0.00427034 0.001907521 -0.0012156897 0.004786752 0.00719442
-0.002135532 0.0031148675 0.009322947 -0.004236 0.0011206554 0.00449672 0.0110389525 0.0047426117
-0.0069419844 0.0037144974 0.002137895 -0.0011871454 0.0063532493 0.0097352825 0.01863682 0.00322496
0.0013426421 -0.0027188861 -0.0029131416 0.010024091 0.0011743903 0.0056016296 0.0041427524 0.010165666
0.009059958 0.004594267 0.0023350157 0.010585348 0.0008285339 -0.00226134 0.009399855 0.0019119899
0.013331323 0.014446667 0.003089875 0.00057987 0.006810888 0.0048724078 0.017258245 0.009539243
0.01355945 0.0026098986 0.0016791197 0.009435614 0.0010571308 0.009813577 -0.0017603516 -0.0011422407
0.002869552 0.0034854878 0.007147768 0.014387167 0.0075591295 -0.0066149975 0.003754939 0.0040986245
0.008816165 0.0033182832 0.0026466725 -0.0026140183 0.0015708023 0.00348931 0.006662992 0.006263749
0.004736885 -0.008430602 0.009412493 -0.00020917108 8.464027e-05 0.0029340165 0.0038744716 0.0061292215
0.005174117 0.017303342 0.0038967647 0.005191619 0.01100459 0.007817702 0.011985785 0.005835757
0.0025168508 -0.00072077685 -0.0018765402 0.0032142054 0.008616895 0.005887847 0.00698234 0.006580173
0.001359483 0.012738771 0.011974237 0.0014496115 0.0035126628 0.005058897 0.002988439 0.00930093
0.0030946636 0.010716838 0.009154532 -0.00010459976 -0.004034517 -0.003978531 -0.001664935 0.016123751
0.0022990962 0.0002503419 0.0022630093 0.004552271 0.0056585874 0.0003848961 -0.00026720128 0.01213369
0.005858588 0.012482413 0.010798208 0.010515347 0.004489974 0.0005334985 0.004990343 0.006295136
0.006567144 0.0051676687 0.01776728 0.009393288 -0.0016797943 9.416359e-05 0.0064815306 0.005883864
0.00701162 0.01079637 0.016947426 0.010947155 0.011322624 0.010921239 0.01679636 0.007250581
0.014470709 0.013094257 0.017066367 0.01214447 0.0030981712 0.0020506233 0.0072123962 0.014318709
0.0043301214 0.0035733574 0.005100906 0.009741616 9.023495e-05 0.004257677 0.0066297348 0.0107680205
0.01577572 0.010381435 0.007879721 0.008776759 0.0078814365 0.0056845415 0.014813126 0.008635043
0.0071850736 0.004784304 0.0014227827 0.005284753 0.004189475 0.016027898 0.0014919948 0.0068678074
0.006485595 -0.0013514749 0.009234138 0.008143617 0.010595537 -0.0032423441 0.0065261214 0.005253264
0.008209664 0.017477956 0.0068861516 0.0091197435 0.0011635761 0.0046395105 0.00510202 0.003926458
0.0063811783 0.009393319 0.005582102 0.0047414815 0.005000554 0.007588196 -0.005782254 -0.005553823
0.00065580086 -0.008104708 -0.0101465145 -0.0007984212 -0.009927016 -0.0047455756 -0.0064965505 -0.0042605833

CCN.module.branch1.2.conv.bias f4 [32]
00000000: d7e8 05bc 1e87 74bb e42a f2bb 0cc0 05bc
00000010: 3a43 32bc 6632 cabb 5a7e 39bb 1d63 e9bb
00000020: b6f7 04bc c287 3bbc ebb1 923c b636 f3bb
00000030: 2f2e 01bc a855 733c 7815 32bc 8c0c c4bb
00000040: 7a9d e4bb ed91 d7ba bbb5 f2bb da7e 1abc
00000050: 59c8 6b3c 9b6b e7bb 0b52 03bc 37e6 ebbb
00000060: f528 1c3c 006a ebbb 1b00 fcbb f830 bcbb
00000070: 7c40 e7bb 1837 903c 7cae c9bb 2cde 493c
-0.008173189 -0.0037311981 -0.007390367 -0.008163463 -0.010880286 -0.0061705587 -0.0028304071 -0.007122411
-0.0081156995 -0.011445941 0.017907104 -0.0074222935 -0.007884546 0.014851965 -0.010869376 -0.005982941
-0.0069767805 -0.0016446688 -0.007406918 -0.009429658 0.014391028 -0.007062388 -0.008015166 -0.0071990746
0.009531249 -0.007184267 -0.0076904423 -0.005743142 -0.0070572477 0.017604396 -0.0061548334 0.012321036

CCN.module.branch1.4.conv.weight f4 [16, 32, 7, 7]
00000000: 2c86 0a3c 9c1f 56bb 5cfc 2a3c 1f22 c73a
00000010: 47b3 1ebc 3346 adbb 2da9 50ba f0ef 513c
00000020: e50d e7bb 4839 313c 6070 33bc 3aac 1c3c
00000030: 5286 6c3c 1d34 813c 6fa2 d139 e1d9 a7bb
00000040: c84d fdbb ebd0 11bb c7a1 d33a 3877 3a3b
00000050: 3985 093c 2bd7 a7bb d200 5a3c 6e2e 1fbc
00000060: 0e07 fd3b 5156 bebb 2897 683b bf9f 563b
00000070: 5dde 2c3b 1ed6 113c daf0 50ba b61f ba3c
00000080: 7ef2 5e3a 2ede 883c e7f7 353c 7c88 3c3c
00000090: 7535 623c 7fdd 2039 7847 b93a 93ba faba
000000a0: 9ef1 f73a 9ebe 9c3c 95f3 853c 299b 163c
000000b0: 29a4 8ebb 708a 2ebc da8b d63b 7cab 4d3c
000000c0: 1eb7 963c 1bda d9bb 0ad7 14bb b856 433c
000000d0: cdac 4a3c b2a5 44bc 7128 a13c 0781 0abc
000000e0: b491 073c 047b 043b d8e5 95bb 6351 38bc
000000f0: a368 3abc e70e 03bc e57f ec3b 9278 093c
00000100: bd54 9e3b 3405 393b c356 243c ed42 403b
00000110: 706a a03c 849a e63b 9b16 15bb 1994 b43c
00000120: 6bac 213b faad b53b aa9e 1cbc f2be ea3b
00000130: 8ce1 84ba f3ab 0aba e234 e03b d629 43bb
00000140: 3b47 e83a feee 08bb bcda 86bb 4a7d 0abc
00000150: 5c23 473c 490a 16ba b78d c9b9 05dd 883b
00000160: 8898 333c cff3 673c 694b cb3b 5279 293c
00000170: 7380 9eba 5665 093c 6d81 0b3c 89ab f838
00000180: 1991 823b 2b13 113c 6c48 bc3c c53f b13c
00000190: bd10 08ba 32d1 ab3b 981c a53a 81c9 dbba
000001a0: b262 8ebb 527f b03b 1c3a 9a3c 81df a6bc
000001b0: a16e b0bb 34f9 eb3b 923b c83c 1dc8 183b
000001c0: b57b 843c 7150 da3b 728b bd3b 06e6 303c
000001d0: 22bd 3dbc f8aa 1cbc 366a b4bb 7e4f 853c
000001e0: f1db 003c b90d ec3b 0b8a 6aba 0f58 4f3c
000001f0: 96a8 7dbb 55ac 033c df03 4bbc fbda b13c
00000200: d042 eeba 146f 40ba 3603 b73c 2efb 783c
00000210: bdec 9a39 61a9 323c 8ac1 873c 4142 8a3b
00000220: b11a 813c 16c0 0a3c 7f66 ef3b e51b 28bb
00000230: b477 d33b 6d5d dc3b 6a0c da38 f23b 3dbc
00000240: 7fb1 dfbb dddd 2f3c 62f7 053c d94b c8bb
00000250: 6fb5 69bc 4af8 613b 5a00 f3ba 77b8 bebb
00000260: 8b44 013c cd88 4bbc 4ebd 933c de08 053c
00000270: cefb 4d3c 3260 b53b f9a2 2fbb 8f51 08ba
00000280: f6fc 083a ef39 c53a 6afc 28bb 1c9a 553b
00000290: d29b 2cbc d8f6 573c c3c5 ddbb 2774 a5ba
000002a0: 6143 4d3c a836 b13b 5ba4 35bc 2856 dc3b
000002b0: 45f5 0bbc 7233 d33b ec79 a93b 767c 96ba
000002c0: ba31 ca3b 1f0a c7ba e9f8 b63a a1e5 7c3c
000002d0: a874 b53b fe59 923c 895c 183c 40e7 c23b
000002e0: 3149 693b 2891 2a3c 2698 033c ac9e 48bc
000002f0: 85d5 813c 7e46 043c 3974 df3b 81f7 8e3a
00000300: d72a 2f3c 0428 65bb 40a7 313b ea47 733c
00000310: eca7 453b 2747 453c fede b0bb 5535 963b
00000320: 87db 8c3b e7d1 5bb9 d321 b33b 1c64 293c
00000330: 234f 2e3b 990d cb38 92b6 eb3b 6c2c 663b
00000340: 8f1b 2c3b 3f9b bc3b 7b04 283b 0040 323c
00000350: 7ef4 af3a 8eba 5e3c f273 1a3c fb85 90b9
00000360: 0166 223c 6d72 a43b 5e41 573c fc62 22bc
00000370: e106 d53b ca5d 0c3c 4ee8 26bc 1e96 903b
00000380: b84f 88bb 004a 063c c63e 083c f8fb 1cba
00000390: 0d6e 213c b250 8c3a c37e 773c 9656 3f3c
000003a0: fc6f eaba d3f0 2d3c 3d27 213c 2492 9d3b
000003b0: 3b1a 1abb a552 ae3c 94fa 473c 2a45 593c
000003c0: 43b2 613c 669b d73b 5499 363c 5e5a 193b
000003d0: ec23 8d3c 6639 283c 00e1 673a 2b1a 003a
000003e0: 87f4 4b3b 3143 5f3b 245a b3bb 6441 ed3b
000003f0: 7287 153c 0523 c53b 7a51 9bbb f30a 773c
0.008454841 -0.003267265 0.010436144 0.0015192664 -0.009686298 -0.0052879094 -0.00079597795 0.012813553
-0.007051217 0.01081688 -0.010952085 0.009562546 0.014436321 0.01577192 0.0003998461 -0.0051224087
-0.0077302195 -0.002224977 0.0016146236 0.0028452408 0.008393579 -0.0051220856 0.01330586 -0.00971566
0.0077217882 -0.0058086296 0.0035490487 0.0032749025 0.0026377656 0.008901147 -0.000797046 0.0227202
0.0008504762 0.016707506 0.011106468 0.01150715 0.01380669 0.00015341303 0.0014135679 -0.001912909
0.0018916612 0.019133862 0.0163515 0.0091922665 -0.0043530655 -0.010653123 0.0065474333 0.012553092
0.018397864 -0.0066483147 -0.002271118 0.011922531 0.0123703005 -0.0120023955 0.019672604 -0.008453614
0.008274484 0.0020214925 -0.0045745187 -0.011249873 -0.011377486 -0.007999158 0.0072173947 0.008390563
0.004831879 0.002823186 0.010030451 0.0029336766 0.019582003 0.0070374627 -0.002274907 0.022043275
0.002466942 0.0055444213 -0.009559313 0.0071638757 -0.0010138019 -0.00052899047 0.0068422416 -0.0029779575
0.0017721424 -0.0020894404 -0.0041154306 -0.008452723 0.012154426 -0.00057235785 -0.00038443293 0.004176738
0.010961659 0.01415725 0.006204058 0.010343866 -0.0012092724 0.008385977 0.008514744 0.000118575124
0.003984582 0.008854668 0.022983752 0.021636853 -0.00051904825 0.005243444 0.0012597023 -0.0016768427
-0.0043452615 0.0053862715 0.018826537 -0.020370247 -0.0053842817 0.007201338 0.024442468 0.0023312636
0.01617227 0.0066624214 0.0057844454 0.010797029 -0.011580737 -0.0095622465 -0.0055058254 0.016273256
0.007864938 0.0072037843 -0.00089469616 0.012655272 -0.0038705221 0.008036693 -0.01239106 0.021710863
-0.0018177871 -0.00073407707 0.022340398 0.015196605 0.00029549553 0.010904641 0.016571779 0.004219324
0.015759798 0.008468648 0.0073059197 -0.0025651392 0.0064534787 0.0067250044 0.00010397362 -0.011549937
-0.006826579 0.010734049 0.008176656 -0.0061125574 -0.014264449 0.0034480267 -0.0018539533 -0.0058203298
0.007889877 -0.012422753 0.018034603 0.00811979 0.012572242 0.005535149 -0.002680002 -0.00052001415
0.00052256824 0.0015047173 -0.0025785216 0.0032593077 -0.010535197 0.013181411 -0.00676796 -0.0012623117
0.012528271 0.005408127 -0.011086549 0.006724138 -0.0085423635 0.0064453417 0.005172005 -0.0011481184
0.0061704786 -0.0015185511 0.0013959679 0.015435607 0.005537588 0.017865177 0.009299406 0.0059479773
0.0035596604 0.0104105845 0.0080318805 -0.012244862 0.015848884 0.008073447 0.0068192747 0.0010907502
0.010691366 -0.0034966478 0.0027107745 0.014848689 0.0030159904 0.01204089 -0.0053976765 0.0045839944
0.0042986306 -0.00020963662 0.0054666786 0.010338809 0.0026597462 9.682327e-05 0.007193395 0.0035121692
0.0026261543 0.0057558115 0.0025637436 0.010879517 0.0013424305 0.013594283 0.009427058 -0.00027565644
0.009912015 0.0050185234 0.013138143 -0.009911295 0.006501064 0.008567283 -0.010187222 0.0044124266
-0.004159894 0.008196354 0.008315748 -0.0005988474 0.009852898 0.0010705201 0.015105906 0.011678359
-0.0017886157 0.010616499 0.009836015 0.004808681 -0.002351417 0.021279642 0.012205739 0.013261119
0.013775411 0.0065798042 0.011144955 0.002339981 0.017229043 0.010267591 0.00088454783 0.0004886712
0.0031121091 0.0034067149 -0.005473392 0.007240461 0.009126531 0.0060161375 -0.0047399374 0.015078294

CCN.module.branch1.4.conv.bias f4 [16]
00000000: 79d8 eebb 423f 03bc 88c5 413c a2fe b0bb
00000010: abcc 633c 8b1b 423c 4a25 06bc 930c 203c
00000020: a900 683c 6980 fcbb 944d 653a 575e dabb
00000030: 58a0 2b8e f8a3 6c3c acdd 613c b6cb cfbb
-0.007288989 -0.008010687 0.01182688 -0.0054014483 0.013903777 0.011847387 -0.008187601 0.009768623
0.014160314 -0.0077057374 0.0008747217 -0.006664078 -2.115458e-30 0.01444339 0.013785761 -0.006341423

CCN.module.branch1.5.conv.weight f4 [8, 16, 7, 7]
00000000: 371e aa3b 4406 98bb 1620 7fbc d2dc 59bb
00000010: e75c c8bb d524 c9ba a95a 2c3c 1e66 2b3a
00000020: 8b5b a43b 66b9 b6ba 2b02 933b ea2d 903b
00000030: 5e90 b0bc e777 5e3b 2fb7 853a ed24 b53b
00000040: 89fc 953c 1561 f8bb f28a af3b 4276 d1ba
00000050: abe6 0f3b f5ae 813c 3ba4 c23c 8290 4d3c
00000060: 3268 f83b 02e6 443c ad02 ad3c 10b1 053d
00000070: 049f 2bba 9ef5 ab3b 7661 d23a 7210 7bbb
00000080: 5ef3 523c 9842 163c 1168 5fbc 1c1b 9c3c
00000090: 130c f83b c275 973c 9a39 423c 3dd4 d23c
000000a0: 7762 1cbc 07d7 12bb 10f2 91bc f51d 15bc
000000b0: be53 a0bb 5151 be3a b941 41bc 701e df3a
000000c0: e276 6d3c 3e48 b7bc 0412 b6bb 66cc 113b
000000d0: 31af 683b 390a 10bb 4d3a 233a 0174 b33b
000000e0: 25b8 9f3b ab06 743b 5e2b c438 9df1 8d3a
000000f0: 1327 343c bf1c 043c 6b44 35bb 057c 543c
00000100: 96d8 7e3a 78ce 763c aa69 823c 4008 97ba
00000110: dd94 2f3c 7894 b3bb c314 a2bb f5f0 29bc
00000120: 9d22 f13b 9c0a 353c 4f97 3d3c be5d 6e3c
00000130: 4a25 a53a 397a a43c f70a a53c a5ca ceba
00000140: 6960 133c bc66 413c a16c 873b c240 6a3c
00000150: 70f7 893b 6dc7 103c 278d a93c ab16 073a
00000160: 22d9 b3bb b4c7 5c3c 8bb5 2e3c ca11 213c
00000170: 2c64 4a3c 4ff2 1f3c 651c 6a3c ffe9 1c3c
00000180: 6c8a 333c 8ef1 2d3c f4a5 5fbc 8bc4 fcbb
00000190: b140 0cbc 1bc2 e4bb 053b 08bc 6441 39bc
000001a0: edec 8dbc 2c6c 27bc 8c99 24bc 9f79 cdbb
000001b0: 7c26 ebbb 4730 f7bb 6a47 78bc 2702 b9bc
000001c0: 4a30 09bc f24d 2dbc 4361 0bbc 1838 a03a
000001d0: 9b0d 45bc 1d85 85bc abbc d7bc 5720 c6bb
000001e0: b163 e2bb 6ef8 30bc abaf 5bbc e6d9 82bc
000001f0: 2ecf 9dbc 4ba8 bebc 60f3 fcba 34fe e7ba
00000200: ca8b 02bc eace 1fbc 07fd 93bc f94a b4bc
00000210: 738f d7bc ed35 063b 46d1 92ba 14e8 ffbb
00000220: fb68 aabc ddbe aabc 5d57 c4bc 2a62 cebc
00000230: ca51 943b be1b 4c3a 26d3 febb dd45 91bc
00000240: db2e c5bc 30bb f0bc 229d 06bd 7182 a13b
00000250: 4749 18ba ebe5 9e3b 7834 babb 5367 d3bb
00000260: 9138 e8bb 2192 563c 5289 52ba c971 633b
00000270: 41fe 52ba ffdf a8bb d1c9 933b 3bc4 543c
00000280: c191 35bc c6ae c93c 8c6f 303c 18bf 953c
00000290: bddb 983b 5fbb f038 1f29 523c 7176 b93c
000002a0: 9d35 f53b 5def 11bb 450a daba 5851 0d3c
000002b0: ba28 d6bb 3011 3d3c 8969 49ba df8e e73c
000002c0: 9112 0c3c a784 813c 7900 9fbb 66c3 23bb
000002d0: b4e5 013c 83df 083c 299f 95bb 4e0a 5f3c
000002e0: 4936 3b3c 4289 5b3b 9ea7 a83c 1af7 5e3c
000002f0: 8a84 69bb 6236 813c 1c46 fa3b dca6 ea3b
00000300: af18 4f3c 2a70 dd3c 4834 7d3c e74a 713c
00000310: fb34 5abc 112d 303b 7cc5 97bc 529a 66bc
00000320: 5169 76bb 7d6f debb cee7 61bc 8512 2fbc
00000330: 9445 1ebc d2d3 1bbc 5c42 48ba 54c8 1fbc
00000340: cb3a 52bc 8fcf 31bb a2ff 32bc f52f 41bc
00000350: fa2a 24bb 39d8 67bc 5a34 0cbc 4deb 09bc
00000360: 542d 08bc e6e4 12bc 5148 0bbc a963 2dbc
00000370: 31d8 7b3c 5fab fabb c0b4 26bc e2a7 ecbb
00000380: 516f 29bc 88f5 96bb 9516 dcbb 6ddf 8cbc
00000390: 7319 b8bb d590 043c 65e6 c8bb fb53 ac3b
000003a0: 21f0 fcbb 21f5 6cbb 3e4e 9a3b 9977 ce3a
000003b0: 7066 67b9 413f 67bb 820e 383b 272e 58ba
000003c0: d4af 12bc 85f6 d33a e9c0 ceb9 c927 76bb
000003d0: 4e15 d1bb b9fb 22bb 0cfb ce3b 8dd4 28bb
000003e0: 10a6 3dbc 714b 66bc a3cc 25bc 2705 19bc
000003f0: b326 9aba a36c 28bb a404 18bc 1529 cbbb
0.00519159 -0.004639419 -0.015571615 -0.0033243191 -0.0061145904 -0.001534606 0.010519662 0.0006538349
0.0050157956 -0.0013940751 0.0044863424 0.0044000046 -0.021553215 0.003394598 0.0010201688 0.0055280835
0.018308895 -0.0075799325 0.0053571397 -0.0015980678 0.0021957557 0.015830496 0.023759952 0.01254666
0.0075807804 0.012017729 0.02111944 0.032639563 -0.00065468275 0.0052477857 0.0016050774 -0.0038309363
0.012875406 0.009171151 -0.013635651 0.019055896 0.0075697987 0.018488768 0.011854554 0.025735969
-0.00954496 -0.0022405998 -0.01781562 -0.009101381 -0.0048927953 0.0014520084 -0.011795455 0.0017022621
0.014493676 -0.022373315 -0.005556347 0.0022247075 0.0035504813 -0.002197875 0.0006226644 0.005476475
0.0048742467 0.003723542 9.354086e-05 0.0010829453 0.010995644 0.008063494 -0.0027659188 0.012969022
0.0009721605 0.015063874 0.015919525 -0.0011522844 0.010716644 -0.0054803453 -0.0049463226 -0.01037239
0.0073588626 0.011049893 0.011571719 0.014548717 0.0012599614 0.020077812 0.02014683 -0.0015776946
0.008995154 0.011804279 0.0041328226 0.014297666 0.004210405 0.008836609 0.02069719 0.0005153219
-0.0054885307 0.013475347 0.0106634 0.009830901 0.012352984 0.009762361 0.014288996 0.009577273
0.010958295 0.010616673 -0.013650406 -0.0077138594 -0.0085603455 -0.006981147 -0.008314853 -0.011307094
-0.01732489 -0.010218661 -0.010046374 -0.006270602 -0.0071762186 -0.007543597 -0.015153745 -0.022584034
-0.008373329 -0.010577666 -0.008507076 0.0012223748 -0.01202717 -0.016298825 -0.026335081 -0.0060463357
-0.006908857 -0.010801418 -0.013408582 -0.015973043 -0.01926383 -0.023273608 -0.0019298606 -0.001769966
-0.007967899 -0.009753922 -0.018064989 -0.022008406 -0.02631352 0.002047892 -0.0011201284 -0.0078096483
-0.020802012 -0.020842964 -0.02396744 -0.025193293 0.0045263516 0.00077861163 -0.0077766357 -0.017733509
-0.024070194 -0.029386133 -0.032864697 0.00492888 -0.0005809259 0.0048491857 -0.0056825243 -0.006451526
-0.0070868214 0.013096363 -0.00080313266 0.0034705272 -0.0008048751 -0.0051536555 0.0045101424 0.012986238
-0.011082114 0.024619471 0.010768782 0.018279597 0.0046648667 0.000114789924 0.012827187 0.022639485
0.007483198 -0.0022267916 -0.0016635141 0.008625351 -0.0065356167 0.011539742 -0.00076832675 0.028266368
0.008549348 0.015810324 -0.0048523513 -0.0024988293 0.007928301 0.008354071 -0.0045660925 0.013613297
0.011426517 0.003349856 0.020587739 0.013608718 -0.0035631978 0.015773002 0.007637752 0.0071610045
0.012640162 0.027031023 0.015454359 0.014727331 -0.013318296 0.002688233 -0.018526785 -0.014074879
-0.0037599395 -0.006788193 -0.013788177 -0.010685568 -0.009660143 -0.009510951 -0.0007639283 -0.009752352
-0.0128314 -0.0027131771 -0.010925205 -0.011791219 -0.002505003 -0.014150673 -0.008557403 -0.0084179165
-0.008311588 -0.008965706 -0.008501128 -0.010582843 0.015371368 -0.0076498236 -0.01017493 -0.0072221616
-0.010341481 -0.0046069063 -0.006716559 -0.017196381 -0.005618268 0.008091171 -0.006130981 0.0052590347
-0.0077190553 -0.003615685 0.004709034 0.0015752196 -0.00022068038 -0.0035285505 0.002808482 -0.00082466233
-0.0089530535 0.0016171491 -0.0003943511 -0.0037560335 -0.0063807135 -0.0024869277 0.006316548 -0.0025761456
-0.011575237 -0.014056073 -0.01011959 -0.009339607 -0.0011760801 -0.0025699518 -0.00927845 -0.0061999657

CCN.module.branch1.5.conv.bias f4 [8]
00000000: c739 b1bb de99 fdbb f8d5 393c 81df 9ebb
00000010: cd72 493c 6151 473c ee45 9abb d3b2 a4bb
-0.005408499 -0.0077392897 0.011342518 -0.004848421 0.012295437 0.012165398 -0.0047080433 -0.0050262003

CCN.module.branch2.0.conv.weight f4 [20, 3, 7, 7]
00000000: 3333 76bc 78b8 73bb a130 cd3b c8d0 1c3c
00000010: 6130 f13b 246a 973c 697a 3abc f179 1abc
00000020: c0d1 20bc 5ba8 18bb 5147 05bb 4222 aa3b
00000030: 16ec 043c 15b3 a1bb 8692 6dbc da05 29bc
00000040: a4bc d4bb 90b0 7eba e884 483c 8bcd 3b3c
00000050: cfa3 7a3c f2f1 6bba 2540 2abc 1544 79bc
00000060: ee88 0cbb a209 693a ea9b 1a3c 7e84 8cba
00000070: 0811 ea3a 21e3 98bc e060 c53b d7cc f8bb
00000080: 8625 9cbb 905f 373a 3a2b 573b 10b7 9b3b
00000090: 1303 863b 0175 53bc b3b2 eabb 4073 00bc
000000a0: 61c5 54bb 1cbf 53bb a22d 513c c503 253b
000000b0: edfa dfbb 9600 58bb 65a6 07bc e2b0 90bc
000000c0: 1f61 ccbb 2d3a 82bc 734d e7bb d1a3 d0bb
000000d0: d844 db3b 8f8b 6c3c d13b 0f3c 2c76 343c
000000e0: 3ba1 10bc 312a 5abb 73b3 e8bb 9d0a beba
000000f0: 5334 3c3c 21f0 243b 1514 3a3c 9e3f 79bb
00000100: 4257 cbbb 5f02 15bc 1f8b 20bb f77d 0f3c
00000110: d9c7 153c b1b7 7a3b 3c74 e3bb c898 7abc
00000120: 5203 bcbb 1a00 6cbc a49d 953a 12a3 2b3c
00000130: e01b 083c 2f73 2f3b 7378 bfbb 26a5 3dbc
00000140: e432 bbbc b7c2 afbb 1131 59ba b080 d43b
00000150: 0112 983b f150 06bc 7060 0ebc 176e 25bb
00000160: 333f 5dbc 3080 a2bb add0 413c 8584 1ab8
00000170: 597b 0439 0a32 923b ef76 5bbc 724a 98bc
00000180: f475 d6bb 94fe 2e3b 3686 a8bb 7308 48bc
00000190: d40e b6bb 7218 063b 0ea5 d33b 1bc0 013c
000001a0: 6de9 df3a 585e 89bc ed70 d5bb 18dc d6bb
000001b0: 3a3c 003b f75b 35ba 0884 a93c 3e06 1f3c
000001c0: 91b3 83bb 51d2 0abc 0736 43bc 4e62 9bbb
000001d0: 1c34 9abb 4bf5 8f3c 1bfe 463a 1b63 59ba
000001e0: 8c81 b7bc 7052 b8ba 918f 1cbc 6626 a63a
000001f0: 2999 003c b556 833c 8deb 0839 ea48 2abc
00000200: 8fec 52bc 3750 433c abfa 863b 2075 1c3c
00000210: c1b6 453c 5c06 89bb 2eb2 b8ba 5f87 cabb
00000220: 1c6b 6dbb e6ca 4abb 71dd 8e3b d286 803c
00000230: 44d9 31bb dc6b e23b 2eed ab3b a777 0cbb
00000240: c18c c3ba 1852 283a a604 1b3c fe93 f53b
00000250: cd60 473b 626e b83b d976 50bb 0ff3 42bc
00000260: 7680 02bc ad63 06bc 73c4 b93b 79b4 953b
00000270: 32fa 3c3b b6b9 363b 87c1 2f3b d1c8 eabb
00000280: 95d4 47bb b47d c9b9 43d7 883b 9285 ab3b
00000290: abb2 013c 0d40 be39 ec0f 1f3b 25f4 b138
000002a0: fb1a 99bb 8e43 a739 135c 573b a176 263c
000002b0: c214 023c 4371 013b c6da 9eb7 f87f 44bb
000002c0: 5356 063c 73b4 e03b ed11 8b3c 6177 1d3c
000002d0: c0a9 013c 5188 543b a093 00bc 53de 39bb
000002e0: a2e4 563b 369d ac3b 1bac b43b c016 863b
000002f0: a140 aaba 1a68 b8bc 5af4 41bc 2bec eabb
00000300: 97be 313b c096 9c3b 892f 1a3b 91ca fabb
00000310: 2447 3d3a 1c46 24bb dc97 5d3b 2bfb a9bb
00000320: 9b68 f73a b903 933b e9d5 1dbc 3c11 b33b
00000330: c9bf 903a 2b66 773b d9da 9d3a 5f0b cdbb
00000340: 9eb9 733a c800 0e3c 7828 24bb c358 a33a
00000350: 4e8b 9e3b 3188 623c aa2f 5e3c e5c3 dd3b
00000360: 75d9 de3b a6a8 f6ba 0f82 5f3c f931 103c
00000370: dc1a 903c 613c ad3c ae3c ee3b ebef e93b
00000380: e888 c8ba deb8 5c3b 8c68 4a3b 6ec8 9d3c
00000390: 130b a83c 0a9c a13c ddfa 253c 81ef 9fbb
000003a0: e67f 4bbb 4805 173c 006e 973b 6b49 533c
000003b0: 3abf 753c 067a 313c 3876 89bc 26bc 21bb
000003c0: dc3a d23b 7a92 2a3c ecf5 3c3c e701 493c
000003d0: c347 033c 8fc6 86ba eafc 3a3b 1bde 3e3c
000003e0: c033 413b 4930 7a3c ce58 6c3c d43c b93b
000003f0: 1ff4 283c ee84 bf3c 52d8 303c a345 713c
-0.015026855 -0.003718881 0.0062619005 0.009571262 0.0073605035 0.018483229 -0.011381724 -0.009428487
-0.009815633 -0.0023293707 -0.0020336697 0.005192072 0.008112928 -0.0049346783 -0.014500266 -0.0103163365
-0.0064922143 -0.0009715641 0.012238719 0.0114625795 0.015297844 -0.0009000591 -0.01039127 -0.015213986
-0.002144392 0.000888968 0.009436587 -0.0010720638 0.0017857859 -0.018662991 0.0060235113 -0.007592778
-0.0047652153 0.0006995136 0.0032832162 0.0047520474 0.004089722 -0.012906314 -0.007162416 -0.007839978
-0.003246628 -0.0032309955 0.012767227 0.0025179249 -0.0068353326 -0.0032959334 -0.008279418 -0.01766247
-0.0062371637 -0.015896881 -0.007058793 -0.0063671847 0.0066915564 0.01443757 0.008742289 0.0110145025
-0.008827503 -0.0033289308 -0.00710147 -0.0014499013 0.011487084 0.0025167542 0.011357327 -0.0038032304
-0.0062054703 -0.009094804 -0.0024496985 0.00875806 0.009141886 0.0038256461 -0.0069413465 -0.015295215
-0.0057377005 -0.014404321 0.0011414778 0.010475891 0.008307427 0.0026771536 -0.005843216 -0.011575019
-0.022851415 -0.005363788 -0.00082852045 0.0064850673 0.004640818 -0.008198009 -0.008689985 -0.002524262
-0.013503837 -0.004959129 0.011829537 -3.683988e-05 0.00012634452 0.0044615315 -0.013395055 -0.018590186
-0.006544823 0.0026702033 -0.0051429523 -0.012209046 -0.005555967 0.0020461348 0.006458885 0.007919337
0.0017083116 -0.01676862 -0.006513706 -0.006556999 0.0019567148 -0.0006918306 0.02069284 0.009706078
-0.0040192087 -0.008472995 -0.011914737 -0.0047419434 -0.004705919 0.01757302 0.0007590965 -0.0008292661
-0.02240064 -0.0014062654 -0.009555713 0.0012676239 0.007849016 0.016032556 0.0001305772 -0.010393361
-0.012873783 0.01192098 0.0041192374 0.009549409 0.012067498 -0.0041816663 -0.0014091188 -0.0061806883
-0.0036227172 -0.003094369 0.004359894 0.015689287 -0.0027137557 0.0069098305 0.00524678 -0.0021433623
-0.0014919267 0.00064209243 0.0094615575 0.0074944487 0.0030422688 0.005628393 -0.003180912 -0.01189877
-0.007965198 -0.0082024755 0.0056691705 0.004568633 0.0028835651 0.0027881688 0.0026818232 -0.0071650525
-0.00304917 -0.00038431364 0.004176052 0.0052344287 0.007916133 0.00036287346 0.0024270965 8.485493e-05
-0.004672406 0.00031903054 0.0032861277 0.010160119 0.007939519 0.0019751347 -1.8936942e-05 -0.0029983502
0.008199292 0.0068574487 0.016976321 0.009610982 0.007914007 0.0032429884 -0.007847697 -0.0028361275
0.0032790084 0.0052677644 0.0055136806 0.0040920675 -0.0012989232 -0.022510577 -0.011838043 -0.0071692667
0.0027121657 0.004778713 0.0023526868 -0.0076535423 0.00072203786 -0.0025066203 0.003381244 -0.0051874123
0.0018875779 0.0044865278 -0.00963352 0.005464701 0.0011043485 0.0037750106 0.0012043371 -0.006257459
0.00092973735 0.008667178 -0.0025048535 0.0012462366 0.0048383838 0.013826416 0.013561169 0.006767737
0.0068008252 -0.0018818572 0.013641848 0.008800977 0.017590933 0.021146955 0.007270417 0.007139196
-0.001529959 0.0033679525 0.0030885069 0.019260611 0.020513093 0.019727726 0.010130611 -0.004880846
-0.0031051575 0.009217568 0.0046212673 0.012895922 0.014999205 0.010832315 -0.016780004 -0.0024678796
0.006415708 0.010410899 0.011533242 0.01226852 0.008012715 -0.0010282564 0.0028532096 0.011649634
0.0029480308 0.015270301 0.01442547 0.005653003 0.010312109 0.023378816 0.010793762 0.014726075

CCN.module.branch2.0.conv.bias f4 [20]
00000000: f5e7 01bb dd28 eb3c e568 24bc c9fd 22bc
00000010: 7b56 c3bb c51c 6dbc fe9e a03c 34d1 d73c
00000020: f987 47bc 5172 b03c 35b7 09bc 1d96 c23c
00000030: 39ea b4bb 25fc 9b3b a18e 903c 4eb4 2fbc
00000040: a7cf 13bc 71dc 68bb 08ac abbb 35c1 a63c
-0.0019822095 0.028706009 -0.010034774 -0.009948202 -0.005961237 -0.014472191 0.019607063 0.026344873
-0.0121784145 0.021538885 -0.008405496 0.02375322 -0.0055210856 0.0047602826 0.017646136 -0.01072414
-0.009021676 -0.0035531784 -0.0052390136 0.0203558

CCN.module.branch2.2.conv.weight f4 [40, 20, 5, 5]
00000000: b7b8 933b 5ebc 9b3b 75b1 5e3b 0b41 ba3a
00000010: 8b28 11ba 3f04 b63b 30f6 ad3b eeba b33b
00000020: ec7b 0c3b d163 3f3a 37a5 843b 63de a63b
00000030: 1b6a 6e3b 16a2 5f3b 0ae6 d13a d9db 9b3a
00000040: 2e17 743b 1547 9c3b 966c 803b c5c9 a13a
00000050: 19b7 403b 65f4 c03b fec5 9c3b 42db 843b
00000060: 05a6 333b b65c 7e3c 3c0e 7a3b 46ae 153c
00000070: 4d62 323c 21e0 233c 4aba 7d3b dac4 2e3c
00000080: fa59 cb3c b8f6 363c eb30 383c 52ed 61ba
00000090: 2959 0a3c 0f0c fd3b 8615 1c3c 8663 133c
000000a0: 3c29 8b3b b52d db3b 4321 0d3c d625 b63b
000000b0: 3dbf c53b e721 8c3b 96ea 003c dbcf 603c
000000c0: df89 d83b 5e00 be3a e775 1f3b e452 583a
000000d0: fb4b 8dba aebd d5ba 7ec0 77b9 725a 08ba
000000e0: bdf9 b0ba 3359 84bb 7547 90bb 955d baba
000000f0: 6fe0 27ba c51d 65bb 2723 9abb 40a7 b0bb
00000100: 2e79 c9bb 064f bfb9 8c41 41bb 5e29 c6bb
00000110: 89c0 d7bb 9867 d1bb e434 083b daf7 23bb
00000120: efa9 a2bb 753b dbbb 1c11 0bbc 81a3 723b
00000130: ee64 b33b 904b d33b 31e8 e13b 0fa8 ba3b
00000140: 71e0 513b ff74 9c3b 3f02 c73b 8cdd c23b
00000150: 0a8f 063b 51e4 1b3b 1bf5 f13a 5c03 9a3b
00000160: b30b a13b 014f 963b ee75 eb39 faf6 023b
00000170: d74a 493b 2216 593a 2a75 713b f618 42ba
00000180: bc2a 7138 f5da 803a 015a 083b b2b2 0bbb
00000190: 6cbc 963b 198f a83b 8d16 b73b a09d ad3b
000001a0: e33a 8e3b 9fdb 863b f95e 1f3b 05cf ac3b
000001b0: 646e ac3b d4b2 9c3b 45c5 233b 6a52 793b
000001c0: ec8a 7f3b b465 973b bbe7 9c3b cfd7 f03a
000001d0: 39db 453b 8bd4 6c3b fdf7 8e3b 6868 893b
000001e0: 81f4 ac3a b705 c63a 593c 7f3a 3504 953b
000001f0: 1139 843b 91d9 8c3a 5555 b5ba e08b 08bb
00000200: de6f 1bbb 803b 42bb 9d0c 57ba 69fd 3abb
00000210: d207 72bb b38e c2bb 6278 9dbb 392a ceba
00000220: 3b1e 57bb 3e4f a9bb 1833 b9bb a62d bfbb
00000230: 878d a6ba 65f5 68bb 2a57 a9bb 78ba c6bb
00000240: 7cd7 c7bb 66a1 27ba a58b 36bb 1b63 a5bb
00000250: 69db c8bb 79d0 d3bb 3381 ad3b 7600 a63a
00000260: 9e30 ca3b 0c61 f13b a24c f03b 0ea4 333b
00000270: 3bc1 8c3b 9a04 083c 4c88 0a3c 80c6 f93b
00000280: c81e 043b 45eb a63b 5e0c 323c 1228 1a3c
00000290: 3b06 053c 5ff6 873a 7b77 8b3b 160b ca3b
000002a0: bbb5 f33b 5275 d23b 47d8 38bb 2c45 3c3b
000002b0: c1d6 a33b 7c00 b93b 9e10 6a3b 3ec9 d43b
000002c0: cb88 153c ac62 013c 9d8a 3f3c 5991 213c
000002d0: 0597 e33b 6c41 ba3b a73e 3a3c 1b48 5a3c
000002e0: 40b8 1a3c 30fa 713b eacb 0b3c afe7 183c
000002f0: 46c3 1c3c 3ef3 1e3c e44c 363b 34f6 a33b
00000300: d9f7 f13b ba76 863b 3866 c53a d52d d639
00000310: bbe3 7c3b d563 ea3b 8456 d63b 8fe9 5a3b
00000320: eb1f 2b3b 060c 89ba bc1b baba 353a 09ba
00000330: 1f97 34bb cca6 9cba 9732 59bb 3046 96bb
00000340: 8ce5 a7bb 9238 aabb 2d41 8aba f031 97bb
00000350: dcad bfbb 5570 debb a104 d1bb d525 fcba
00000360: e658 a7bb f2ea e8bb 396e e5bb fadd f7bb
00000370: 5696 35ba cf3a 90bb ce59 e6bb c319 e7bb
00000380: 3da9 05bc e6cb 443b bac5 8f3b 81f7 f13b
00000390: 711b df3b 2eb0 963b c8aa 173b 5368 583b
000003a0: 94e2 db3b bee1 013c ee2d b63b 7dbf d93a
000003b0: 0b48 e63b ca3d bc3b 34bb 0e3c 8d26 b73b
000003c0: 39eb 3e3a 905e 58b9 2e1a bd3b 3e9d c93b
000003d0: 8e80 8b39 df5c 90b9 63bd 273b 73b6 8b3b
000003e0: faf6 8f3b 3134 503b c9dd 1a3b 5770 823b
000003f0: 6bd4 823b 5721 743b 38a9 8e3b d29e 283b
0.0045081037 0.0047526797 0.0033980284 0.0014210058 -0.00055373524 0.0055547054 0.005308889 0.0054849302
0.0021436168 0.00073009456 0.0040480155 0.0050924285 0.0036379162 0.003412371 0.0016013992 0.0011891081
0.0037245261 0.004769216 0.0039191945 0.0012343457 0.002940601 0.005888509 0.0047843447 0.004054458
0.0027412188 0.015525034 0.0038155457 0.009135788 0.010887695 0.010002167 0.0038715773 0.01066705
0.024823178 0.011167221 0.011242132 -0.00086184323 0.008444109 0.0077223848 0.009526616 0.008995896
0.004246859 0.0066887983 0.008613887 0.0055587096 0.0060347603 0.0042765024 0.00786843 0.013721432
0.0066082324 0.0014495959 0.002433175 0.0008252098 -0.001078009 -0.0016307139 -0.00023627465 -0.00052014657
-0.0013502162 -0.0040389537 -0.0044030496 -0.0014218563 -0.00064039876 -0.003496037 -0.0047038975 -0.0053910315
-0.006148479 -0.00036489236 -0.0029488532 -0.006047412 -0.0065842313 -0.006390523 0.0020783478 -0.0025019557
-0.0049641053 -0.0066904374 -0.008487966 0.0037023725 0.0054746782 0.0064482167 0.0068941345 0.0056963037
0.0032024647 0.004774689 0.006073266 0.0059468206 0.0020532035 0.002378721 0.0018459888 0.0047001075
0.0049147247 0.0045870547 0.00044910557 0.0019983635 0.0030714774 0.0008281191 0.0036843517 -0.0007404232
5.7498677e-05 0.0009830879 0.00208056 -0.0021316228 0.0046000984 0.0051440117 0.005587405 0.0052983314
0.004340516 0.0041155363 0.0024318083 0.005273702 0.005262183 0.00478206 0.0024989408 0.0038043507
0.0038992716 0.0046202783 0.0047883666 0.0018374863 0.0030190481 0.0036137428 0.0043630586 0.0041933544
0.0013195426 0.0015107904 0.00097364705 0.0045476207 0.004035123 0.0010745992 -0.0013834635 -0.0020835325
-0.00237178 -0.0029637516 -0.00082034786 -0.0028532392 -0.003693093 -0.005937421 -0.0048056105 -0.0015729136
-0.0032824415 -0.005166917 -0.005651843 -0.005834299 -0.0012706973 -0.0035546657 -0.0051678615 -0.0060647093
-0.006098686 -0.00063945947 -0.002785423 -0.0050472147 -0.0061296714 -0.006464061 0.0052949428 0.0012664932
0.0061703464 0.007366305 0.007333354 0.0027411017 0.004295496 0.008301878 0.008455347 0.00762254
0.0020159949 0.0050939643 0.010867206 0.009408968 0.008119161 0.0010373107 0.0042561865 0.0061658723
0.0074374354 0.006422677 -0.0028205083 0.0028727753 0.004999966 0.0056458097 0.003571547 0.0064937165
0.009126852 0.00789706 0.011690763 0.009861314 0.006945493 0.0056840684 0.011367477 0.013322855
0.009443343 0.0036922805 0.008532504 0.009332581 0.009568041 0.009701548 0.0027816826 0.005003715
0.007384282 0.004103509 0.0015060371 0.00040851408 0.0038587886 0.007153014 0.006541075 0.0033403372
0.0026111554 -0.0010455854 -0.0014198939 -0.0005234809 -0.0027555896 -0.0011951565 -0.0033141726 -0.0045860037
-0.0051237997 -0.005194732 -0.0010547988 -0.0046141073 -0.005849583 -0.0067882934 -0.0063787256 -0.0019237349
-0.005107033 -0.007108086 -0.007001665 -0.0075643035 -0.0006927004 -0.004401542 -0.0070297485 -0.0070526316
-0.008158025 0.003002876 0.0043875845 0.007384241 0.006808691 0.004598639 0.0023142565 0.0033021166
0.00671036 0.007927356 0.0055596745 0.0016612854 0.007027631 0.0057446705 0.008711625 0.0055893124
0.0007282976 -0.00020634593 0.005770943 0.006152778 0.00026607927 -0.00027535015 0.002559506 0.004263693
0.0043934556 0.003176939 0.002363073 0.003980677 0.0039926074 0.0037251317 0.0043536685 0.002572943

CCN.module.branch2.2.conv.bias f4 [40]
00000000: 10d2 d4bb 8642 09bc 00fb bb3c baf2 c33c
00000010: cebc ca3c 103b 373c 7734 b13c 646f 22bc
00000020: badf 7d3c e713 03bc 7135 1cbc a3e3 0ebc
00000030: 2848 05bc 943d 9e3c e940 16bc aecd 04bc
00000040: b5c7 983c b8fe 2bbc 32b3 b23c f25e ae3c
00000050: a171 02bc fb60 9c3c 7efd 843c 29d3 bb3c
00000060: 5941 12bc ac64 e9bb f830 03bc 9d16 aa3b
00000070: 303b 09bc a73f 03bc 87e1 11bc ae86 12bc
00000080: 2238 fcbb 6bc4 d13c 9a46 9c3c 9700 f5bb
00000090: 2d9a e3bb d758 b53c a6a8 9d3c fab4 ac3c
-0.006494768 -0.008377677 0.022946835 0.023919452 0.024748232 0.011183515 0.021631462 -0.009914253
0.015495235 -0.008000351 -0.009534226 -0.008721265 -0.008134879 0.019316472 -0.009170749 -0.0081056785
0.018649915 -0.010497741 0.021813963 0.021285508 -0.007961662 0.019089213 0.016234156 0.022927837
-0.008926713 -0.0071225967 -0.0080072805 0.005190684 -0.008375928 -0.008010781 -0.008903868 -0.008943243
-0.0076971212 0.025606355 0.019076634 -0.007476877 -0.0069458694 0.022137089 0.019245457 0.02108239

CCN.module.branch2.4.conv.weight f4 [20, 40, 5, 5]
00000000: 0f0d a43b 2563 a03b 3b77 fa3b f3f5 193c
00000010: c2e5 353c 2df2 fd3a bddf 8d3b c6eb 4c3b
00000020: b7e9 aa3b f180 f13b 1003 31bb b04f e7ba
00000030: e87b a5bb cd61 833b a30d dc3a 0bd3 21b9
00000040: ee9e 88bb a0f0 c13b 7486 b53b e1a2 c73b
00000050: 342c b23b 321f ad3b 8a3e 8b3b 10cb 873b
00000060: 39a9 653b 1e2c bf3b 1a22 c83b b491 0b3c
00000070: e39d 493c 44d1 c239 82a3 003c e979 5b3c
00000080: bbea 4c3c e621 7a3b 0caa 753b c9f9 d43b
00000090: 3fc5 7f3c c6ce 5a3c 7f91 413c 4011 0b3c
000000a0: 0667 183c ea66 373c bc8c 8b3c 8a31 db3b
000000b0: 8cd9 9b3b 7538 f63b c540 1aba ee6d f63b
000000c0: 1f60 1c3c 94d9 013c 9381 563b 23e4 57bc
000000d0: f750 0f3b 1953 853b c0b3 de3b a77d f83a
000000e0: 3a10 69bc 35a0 793c d209 47ba 90f7 3f3b
000000f0: 4f0a 4f3c f3a2 d63a 6612 ebbb 17ab 943b
00000100: 7b7f b23b a7ed 833b 9eb4 963b 0309 3f3b
00000110: e4f9 ea3a 34f2 7e3c fd22 543c 4403 f33b
00000120: 1b76 453c b8b1 9d3a c719 d83b 959c 473b
00000130: 77bd 7aba 3e69 ff3a 2c39 9d3a 7668 c43a
00000140: e1d6 11bb 57dd 24bc 01ca 84bb e5c4 253b
00000150: 1f0c a0ba 2dde 10ba 8443 c93b 9535 00bb
00000160: 9a36 8dbb fc45 fa3b c413 7fbb eb1f 2dbb
00000170: 8eba bcbb eae3 36bb f30a 833b d8ab c93b
00000180: 7860 703b 02d7 b1ba 07a3 34bc ffbe 80ba
00000190: 3927 0c3b 7369 8c3a c3de fb3a 5236 42bb
000001a0: 2677 db3b 0b36 65ba fd6e 023b e8be 92bb
000001b0: 7543 243b c3e0 5d3c a388 7e3a e95a c8bb
000001c0: b231 673b 394d cabb 49e5 8d3b 0409 213c
000001d0: 173b 323c ac87 3b3b 6f9b f1ba 15da ef3b
000001e0: ec7f e5bb 421c 96bb e144 d23b 7321 3abb
000001f0: 8a3e 8abb cc4b b93a e318 e83a 471e 113b
00000200: e33d 263b 1968 353b 98bb 66ba c464 c1ba
00000210: 0a64 74ba 2e0f 4a39 01bc 943a 69a9 53bb
00000220: eaed 80bb e32f 4cbb 4fbc 13bb 42bb 3bba
00000230: 2aff 86bb 26db b6bb a70b aabb 099a 7abb
00000240: e60d 15bb f78c 86bb 540f aebb ed8b a2bb
00000250: c4df 5bbb 2ab7 d2ba 6619 db3b 46fb 993b
00000260: 34c6 213b 13d4 213c 8cd2 1c3c 17af b93c
00000270: e4a7 17bc e1e1 6dba 7cb6 d4bb 377a 55bc
00000280: 9092 733b d893 88bb 13a8 34bc ef4a 19bc
00000290: 2296 b1bb 90b0 1e3b 5d83 413b 6b22 3cbb
000002a0: fe19 b639 516b 4a3b f682 143c 1b39 d83a
000002b0: df6a ac3b 25e4 d03b 737d c43c 642f 9b3b
000002c0: c967 0f3c b7db e03b c480 d03b 23b4 003c
000002d0: 2995 9b3b 32d1 fc3b 5198 f43b 8d75 073c
000002e0: f3bc b2b8 d895 7f3b 46d5 0b3c 4417 433c
000002f0: 2278 333c 9d5f cb3b 7d75 d43b 9689 013c
00000300: 51be aa3b 741b 583c b907 e63b 6a27 a13c
00000310: f61d 0a3c d26e 0ab9 85e1 173c aa83 2dba
00000320: 95b0 aaba 1efa a7bb 6f9a e5b8 a592 6a39
00000330: f35a 423a 4dba 2cbb 3168 983a 159d abba
00000340: 8efc 06bb cbde d23a cf7b 8abb dd16 c4bb
00000350: c996 bebb 5210 a639 ab7d 21bb 7bdd 4abb
00000360: ebcc c4bb d361 b4bb feb8 82bb a7f0 3dbb
00000370: 2bb9 11bb 7117 e1bb 6f50 72bb c776 5fbb
00000380: 905e edba de74 123c 4314 1f3c 2a45 1c3c
00000390: 2d0f a83b d997 4b3b ecb4 133c 0f73 5c3c
000003a0: 9cab 4e3c f34c 0a3c fa41 893b 4a50 2e3c
000003b0: decf 5d3c 6477 4c3c 162a 0d3c 8f98 bc3b
000003c0: 89a1 f43b cdd6 543c 264c 8f3c 2ec7 d03b
000003d0: adb0 8138 1f90 ad3a e215 f73b 80d7 f43b
000003e0: f616 a43b c714 533b cba3 283b 62e5 e93b
000003f0: fe96 6c3b a9a3 e13b 5910 ba3b abe2 153c
0.0050064395 0.0048946314 0.007643608 0.009397018 0.011102142 0.0019374542 0.00432965 0.0031268462
0.0052158493 0.0073701073 -0.0027009882 -0.001764765 -0.005050171 0.0040094615 0.0016788732 -0.00015432776
-0.0041693365 0.0059185773 0.0055397097 0.0060924147 0.0054373983 0.00528326 0.0042493986 0.00414408
0.0035043492 0.0058341166 0.006107581 0.008518625 0.0123057095 0.00037158479 0.007851483 0.013395765
0.012507136 0.0038167178 0.003748539 0.0064995033 0.015610992 0.013354963 0.011814474 0.008487999
0.009301906 0.01119397 0.01703488 0.006689255 0.004756158 0.0075140544 -0.0005884285 0.007520429
0.009544401 0.00792541 0.003273104 -0.013176951 0.0021868327 0.004068744 0.00679633 0.0018958346
-0.01422506 0.01523595 -0.0007592711 0.0029291846 0.012636735 0.0016375467 -0.007173824 0.004536997
0.0054473258 0.004026133 0.004599168 0.0029149659 0.0017927256 0.015560675 0.012947795 0.007416161
0.012052084 0.0012031114 0.00659487 0.003045832 -0.00095649756 0.0019486321 0.0011995188 0.0014984745
-0.0022253322 -0.010062537 -0.004052401 0.002529436 -0.0012210644 -0.0005526271 0.0061420817 -0.0019563187
-0.0043094875 0.0076377373 -0.0038921693 -0.002641673 -0.0057595437 -0.0027906843 0.003999108 0.0061545186
0.0036678594 -0.0013568106 -0.011025197 -0.0009822546 0.0021385683 0.0010712579 0.0019216168 -0.0029634428
0.006697553 -0.000874371 0.001990258 -0.004478324 0.0025064622 0.013542357 0.00097096915 -0.006114353
0.0035277423 -0.0061737564 0.0043303114 0.00982881 0.010878346 0.0028614802 -0.0018433164 0.0073196986
-0.007003775 -0.0045810053 0.0064169024 -0.0028401285 -0.004218881 0.0014136969 0.0017707612 0.002214329
0.0025366477 0.0027680455 -0.00088017574 -0.0014754762 -0.00093227683 0.00019269876 0.0011347533 -0.0032297021
-0.0039346116 -0.0031156472 -0.002254266 -0.00071613875 -0.0041197734 -0.0055803237 -0.0051893773 -0.0038238785
-0.002274388 -0.00410616 -0.005311886 -0.004960528 -0.0033550123 -0.0016076316 0.0066863773 0.0046991436
0.0024684789 0.009877223 0.009571683 0.022666497 -0.009256337 -0.0009074491 -0.0064914804 -0.013029627
0.0037166215 -0.004168015 -0.0110264 -0.0093562445 -0.0054195086 0.0024214126 0.0029527762 -0.0028707038
0.0003473311 0.003088672 0.009064427 0.0016496511 0.0052617635 0.006374853 0.0239856 0.004735874
0.008752772 0.0068621296 0.0063630063 0.007855448 0.004748006 0.0077153677 0.0074644466 0.008267772
-8.522896e-05 0.0038999226 0.008534735 0.011907402 0.010953935 0.0062064664 0.0064837323 0.007906338
0.0052106758 0.013190139 0.0070199636 0.019672114 0.008429995 -0.0001320199 0.009270077 -0.0006619046
-0.0013022596 -0.005126252 -0.000109483364 0.00022370608 0.0007414065 -0.002635616 0.0011627731 -0.0013093079
-0.0020597312 0.0016088126 -0.004226185 -0.005984171 -0.005816315 0.00031674147 -0.0024641554 -0.0030954767
-0.0060058734 -0.0055048256 -0.003989338 -0.0028982551 -0.0022235613 -0.0068692495 -0.0036974212 -0.0034097896
-0.0018109847 0.008938996 0.009709421 0.009537974 0.005128762 0.003106585 0.009015303 0.0134551665
0.012614157 0.008441198 0.004188773 0.01063926 0.013538329 0.012479637 0.008615991 0.005755491
0.0074655456 0.012990666 0.017492365 0.0063714003 6.184108e-05 0.0013241804 0.0075404504 0.0074719787
0.00500762 0.003220843 0.0025732394 0.0071379403 0.003610074 0.006885965 0.0056782183 0.00914828

CCN.module.branch2.4.conv.bias f4 [20]
00000000: ad9e 9ebb 8d50 aabb 0146 f4bb 05b9 5fbb
00000010: 4afe dabb e526 503c 51ee a03c 4cbb b8bb
00000020: 0f45 ab3c a8c6 f3ba 6e82 f73b da58 893c
00000030: df26 8d3c 47fa 9b3c fc12 9b3c 08de 9d3c
00000040: 1489 6a3c 89d7 513c afd1 863c 9484 d0bb
-0.004840693 -0.0051975907 -0.007454634 -0.003413738 -0.0066831456 0.012704586 0.019644888 -0.005637562
0.020906953 -0.0018598633 0.00755339 0.016766 0.01723045 0.01904024 0.01892995 0.019270912
0.0143149085 0.012807735 0.016457407 -0.006363461
