all_ep_97_mae_42.0_mse_65.0.pth (torch, 544407 bytes, 25 tensors)

CCN.module.branch1.0.conv.weight f4 [16, 3, 9, 9]
00000000: dfb0 d53b 9aa9 933a 564d 9a3a 8bb1 5439
00000010: 5785 863b 7be4 3f3c 36b4 30bc e739 20bc
00000020: 0998 36b8 2029 babb cb53 f93b 95d3 51bc
00000030: 0d38 463b f56a c3bb a593 85bc 305e 043c
00000040: cffa df3c 3704 5b3c b001 2f3c 28ec 00bc
00000050: 4a91 c43a 0311 dd3b 793d bb3b bd0a 45bc
00000060: 5008 29bc 30c2 bfbb bd33 e53b eac8 41bb
00000070: 98eb 1939 76bd 42bc ed9c 8cb7 f310 e0ba
00000080: 9334 3c3b ac13 62bb c1b8 9b3c 9e37 f53b
00000090: fe5b f43b 9d3f 1fbc f7c3 783c 10df 9a3c
000000a0: 8605 8ab9 b082 4f3b f17e 8bbb 208d 22bc
000000b0: 0f5b 42bc 824b 4ebc a5ff 78bb e99f 033b
000000c0: 3da7 3a3b 4c26 273c 1437 1dbc b903 1a3a
000000d0: 64ac 703c 2b75 d73a b7ad 20bb 9ead 793b
000000e0: 782b 7b3b e004 363c ea59 8abb 688d 693c
000000f0: 89d1 30bc 480e 6abc df95 b3bb b922 a03b
00000100: 9209 30bc 1e68 403b 4f64 583c d2f5 a03b
00000110: c7c7 803c 3769 65bc cafc 02bc 53c3 9b3a
00000120: b13c a2bb 9f66 1bbd 12ec 893a f5cb 463c
00000130: e6ac 2f3c 4f63 98bb fa7b b6bc 3e89 31bc
00000140: 4dfc aabb 2ebf 7e3b d9f6 043c 481f af3b
00000150: 6bda 233b 3d2b 113c 5840 a0bc 7c0d 4b3b
00000160: 9ec4 893b 17cf 68bb 721f fdba 1b7b 863b
00000170: 6dff 823c 71c6 2e3c 6c1c de39 1dda 42bc
00000180: 2171 65bc bc48 69ba ed82 c63b 5648 4b3b
00000190: a9a8 b73b 35cd b53b 00b5 06bb 6b88 b33b
000001a0: df98 a8bc 94f9 01bc f578 9aba 5b8d 8c3c
000001b0: 00f1 47b9 630c 3d3a 9759 b03b ff88 193c
000001c0: b283 d2bb ebba 5bbc 8c25 44bc bb70 003a
000001d0: ae32 d33b 1adb 08bc 2711 3ebc 44f2 29bc
000001e0: 4458 063c a601 9eba 2f75 bd39 2ecb f3bb
000001f0: cc54 2d3b aefc 543a 7557 eb39 1b0e a5bb
00000200: 7bd2 263c 04ea 3f3c 91b7 a93b d446 313c
00000210: 50ac b6ba 1f57 2e3c a5ec 643b 38af 94bc
00000220: 24fb 8ebc 86d7 673b 863b 0a3c c676 df3a
00000230: a180 c23c 51ae 0fbc 66fd cabc 55d3 4839
00000240: 24c8 d9bb e6ca 3dbc 0432 833c cc8f 16ba
00000250: 96ea 54bc 7d5a 16bc 323e 183b 6c6c c7bb
00000260: 404c f5ba 69a7 3bbc 3700 17bc 17fb fabb
00000270: 89dd 22bc 65eb 9cbb 2ee1 d03c 4aa0 87bc
00000280: 1a14 72bc 1ede a23b 3057 6eba c1c0 aa3a
00000290: db02 0ebb d84a c3bb a9ab b0ba 8d65 fabb
000002a0: 4cfe 9fbc 44d3 cebb 9569 f2bb 33c9 2a39
000002b0: 1147 e13b d5f5 363b e817 fbba 66e5 733c
000002c0: a471 8ebc 4f5a 8b3a a341 08bc 61cd 60bb
000002d0: a224 43bb 8318 b639 2514 be3c afac 123c
000002e0: 0038 f63a 1df6 96bc 43ec a2bc 72f3 403c
000002f0: 6b08 393c b79d 2a3b f12a 0abc b923 0c3c
00000300: 789d 0b3c cd4d a63c 72c6 1cbc 9f54 a8bc
00000310: 7b37 263b 5839 423c f84d 6d3b bfb1 a8bc
00000320: 4339 a0ba 4cbd 463c ec62 15bb fa2d 08bc
00000330: 88ad 1bbc 3075 893c a4be c0bb acd1 293c
00000340: 025f 85bc 9aed 8dbb f716 b53b 6467 4e3b
00000350: f91f 15ba 9bbc 60bb b499 abbb b781 a2bb
00000360: 5f90 8bbc 53c2 82bc b97a a8bc 69fb d43c
00000370: b640 833c 5c71 d43b 27e6 023b 3f4b 173c
00000380: 6751 3eba 8ac1 42bc bb01 82bc 82e7 9eba
00000390: 938f 143a 1b85 e63c 3ecc ba3c c7ee 873b
000003a0: 342d f23b a49b 283c c0b0 93bb db74 973b
000003b0: 70b6 4f3c b388 ba3c 1ded 5b3c 127b d93c
000003c0: 1789 2f3b b822 153c f1ab 943b 52e5 8f39
000003d0: 1726 943c f5ab d83c b708 953c 79d0 83bb
000003e0: ebfa 8cbb 6558 6a3c edfe a93c 8f4a 233c
000003f0: 60bf 933c abbf 263c 0682 1d3c 3df0 8c3b
0.006521329 0.0011265755 0.0011772315 0.00020284035 0.004105251 0.011712189 -0.010785153 -0.00977943
-4.3533775e-05 -0.005681172 0.007608866 -0.012806793 0.0030245811 -0.005963678 -0.016305754 0.008079097
0.027341275 0.013367704 0.010681555 -0.007868804 0.0014996913 0.0067464127 0.005714115 -0.012026486
-0.010316923 -0.0058520064 0.006994693 -0.0029569217 0.00014678983 -0.011885991 -1.6762375e-05 -0.0017094895
0.002871786 -0.0034496589 0.019008996 0.0074834367 0.0074572554 -0.009719756 0.01518344 0.018905193
-0.00026325526 0.003166359 -0.004257076 -0.009921342 -0.01186253 -0.012591245 -0.0037994173 0.0020084328
0.002848103 0.010202002 -0.009595651 0.00058751885 0.014689539 0.0016438117 -0.0024517605 0.0038097869
0.003832547 0.011109561 -0.0042221444 0.014254905 -0.010792145 -0.0142856315 -0.0054805125 0.0048869518
-0.010744469 0.0029358934 0.013207509 0.0049121166 0.015720261 -0.014002136 -0.00799484 0.0011883773
-0.0049510826 -0.037939664 0.0010522625 0.012133588 0.010722375 -0.0046505104 -0.022275914 -0.010835944
-0.005218065 0.0038871276 0.008115494 0.005344305 0.0025002013 0.0088604065 -0.019561931 0.003098338
0.004204347 -0.0035523826 -0.001931174 0.004104031 0.015990937 0.010667429 0.00042364316 -0.011892823
-0.014004023 -0.0008899083 0.006058088 0.0031018457 0.0056048227 0.005548144 -0.0020554662 0.005478909
-0.020580707 -0.007933039 -0.0011785316 0.017157247 -0.00019067898 0.00072116236 0.0053817737 0.009371041
-0.0064243907 -0.013411264 -0.0119718425 0.00048996106 0.0064452505 -0.008353019 -0.011600769 -0.010372702
0.008199755 -0.0012054935 0.00036136198 -0.0074399924 0.0026448248 0.00081248104 0.00044887853 -0.005037082
0.010182018 0.0117135085 0.0051793535 0.010820109 -0.0013936851 0.0106408885 0.003493109 -0.018149957
-0.017453738 0.0035376265 0.008437043 0.0017048947 0.023742976 -0.008769588 -0.024779033 0.00019152214
-0.006646173 -0.011584019 0.01601506 -0.00057434733 -0.012995383 -0.0091768475 0.002323043 -0.006085923
-0.0018714741 -0.011453488 -0.00921636 -0.007659327 -0.009940513 -0.0047888034 0.025497999 -0.016555924
-0.0147753 0.004970326 -0.00090919714 0.0013027416 -0.0021669182 -0.00595985 -0.0013478893 -0.0076415003
-0.019530438 -0.006311806 -0.0073978403 0.00016287416 0.006874927 0.0027917523 -0.0019156905 0.014886236
-0.017388172 0.0010631772 -0.00831643 -0.0034302103 -0.0029776474 0.00034732008 0.023202965 0.008952304
0.0018785 -0.018427903 -0.019888049 0.011776792 0.011293511 0.0026033947 -0.00843309 0.008553439
0.00852143 0.02030077 -0.009568797 -0.020548163 0.0025362659 0.011854492 0.0036209803 -0.020592568
-0.0012224097 0.012130093 -0.0022794558 -0.008311743 -0.009501822 0.016779512 -0.005882101 0.010364931
-0.016280655 -0.004331303 0.0055264193 0.003149473 -0.0005688663 -0.0034292105 -0.0052368287 -0.004959311
-0.017036615 -0.015961802 -0.020566331 0.025998788 0.016022068 0.00648324 0.0019973607 0.009234249
-0.00072600547 -0.011886964 -0.015869966 -0.0012123438 0.0005667146 0.028139642 0.022802468 0.0041483375
0.0073906425 0.010291014 -0.004507154 0.0046220846 0.012677774 0.022770261 0.013423231 0.026547942
0.0026784593 0.009102516 0.0045370986 0.00027445942 0.018084569 0.026449183 0.018192632 -0.0040226546
-0.0043023727 0.014303301 0.02075144 0.009966507 0.01803559 0.010177533 0.00961352 0.0043010996

CCN.module.branch1.0.conv.bias f4 [16]
00000000: 5400 c8bb 1356 8b3c 221d bbbb 71b9 bdbb
00000010: 2fc7 c2bb 3921 9fbb c1f1 85bb 9d0b fcbb
00000020: 0968 d3bb 4d99 90bb ff12 13bc 8319 11bc
00000030: e2b3 0f3c 55ef 753c f48f bfbb b8e4 03bc
-0.0061035547 0.017008817 -0.00571026 -0.0057899286 -0.0059441547 -0.0048562554 -0.004087657 -0.007691814
-0.006451611 -0.004412806 -0.008976697 -0.00885618 0.008770915 0.0150106745 -0.005846018 -0.008050136

CCN.module.branch1.2.conv.weight f4 [32, 16, 7, 7]
00000000: 8ede 503b f439 b13b 8876 d13b 92e4 883c
00000010: 23fd 5a3c 441b ec3b 16d2 683b 844a 0ebc
00000020: 8178 a33c 5b6f 0b3b 0a8d 87ba 9eab 193c
00000030: b923 823c 47fc 35b9 48bf 263c 56e2 6d3a
00000040: 530f 5a3b 98e3 22bb a364 193a 399d 583c
00000050: 5242 1abb 7296 ea3b 2c07 1f3c 69fd 30bb
00000060: 0ed9 4c3b cbbd 463c 7587 793c 25b9 283c
00000070: 566d 8c3c cd79 9c3b 6557 3a3c d6c1 583c
00000080: d4ac 91bb 88b8 243c 2318 303c 1564 c43c
00000090: 5c5a 1c3c c8f8 a83b 774d 723b 10bb 383c
000000a0: 1069 753c bd2b 863c 4e76 453c bc61 1e3c
000000b0: 2aab 0dbb 9ba7 173c f511 d9b9 e676 24ba
000000c0: 97ec bb3c e49b 69bc 7fbb 08bb 6283 483a
000000d0: 31d5 f93a cd48 85bc b97b 5ebb 8db4 48bc
000000e0: 8b10 b5bb d28b 743b e7a5 df3b 0330 643c
000000f0: cbaa 043c 8d8e 66bb 6265 61bc 1a9c b4bb
00000100: 7483 183c 7999 98bb acc8 49bb e95e 52bc
00000110: 796c 923c fdc9 02bc 23f7 53bb a395 5dbc
00000120: 98a8 283b 76a3 0a3c d69b 2d3b a6d4 76bc
00000130: 074c 0d3b 45bf 9b3b b58d 89bc 61a8 6dbb
00000140: 3509 95b9 ea42 93bb b982 d5bb 3686 9dbc
00000150: 4ec5 08bc eeb9 6639 5346 a8bb 9ddf 87bb
00000160: 81f1 533c 1d4f c13b 8347 58bb 9718 c1bb
00000170: eaac 53bb ef78 8fbb 56d2 c03a 53f5 8abc
00000180: c6b9 7cbc 39b4 b7bb ce6f d2bb fbf4 f33a
00000190: 3cef 923c bbdf cd3b f8de 2e3c 07f7 0a3b
000001a0: 5758 adbb 2b58 043a 6fbb 7b3b b0d2 15bc
000001b0: 6176 0d3c 336d 5c3c 100e c3ba ae94 143c
000001c0: f0f9 b13a 5919 8abb c8de a23b 096e b43b
000001d0: 45cc 6c3c 8ffa ba3c 5741 f13b dbf6 893c
000001e0: c5e3 583c b192 74bb 17d4 2a3b 6a10 edba
000001f0: 7b1d c43c a2d3 9bba aa02 623c b905 223c
00000200: 8863 6e3c e853 b53c 7816 663c acf4 26bc
00000210: 3025 693c b137 c73b 8cec a63b b308 6dbb
00000220: e02a 163c 1b08 11bc 84bf 1b3b fcf1 083a
00000230: 14e5 5a3c a23f 19bc 9ee5 ce3b 452d 463c
00000240: c1e9 7f3c 7ffb d93c 1bb5 313c bcf5 2ebc
00000250: 5cb1 74b9 0791 14bc ae88 e73b f550 ad3b
00000260: e7b1 e73b 982c d73b 82dd 26bb 97cf 533c
00000270: 6b6e d9bb 1372 353b 3bc2 c73b 6c54 0b3c
00000280: 636e ee3b b226 33bc febf 34bc a432 e73b
00000290: 90e2 a939 028f 0bbc 1102 fd3b ccee 103c
000002a0: a702 5b3c f569 773c 727d 353c 05eb 903c
000002b0: 823e f03b a7f9 bd3c 515a 153c 0e2c 4c3b
000002c0: 605d 0f3b a101 94bb 7ab3 8dba d3eb c43a
000002d0: 4209 143b 56a4 4cba 79b7 173b c335 87bb
000002e0: 7905 063c 24f2 163c 4941 4c3c 594c fe3a
000002f0: eb5f 3d3c a201 693c f12c a5bb 1e33 18bb
00000300: 9fa4 103c d9c3 ae3b 52d7 983b 0e40 873c
00000310: e8c5 2dbc 9018 bfba a337 da3b 8755 0f3c
00000320: ba81 8f3c 3198 973c b04f 53bc 2035 463c
00000330: 9282 683c e272 b13b f4df 8bba d230 a53a
00000340: 5158 153c b975 4b3b a53a f53b 54d1 15bb
00000350: 448a 5d3c 9c98 a33c effb af3c b253 113c
00000360: e948 543c d767 c1bb a049 c3bb b885 05bc
00000370: b3d4 103a 98ff 513c 09b8 733c f362 81bc
00000380: d156 0f3c 6559 bd3c 6171 70ba 52bc afba
00000390: f8ea 1c3c 6419 c8bb 6282 863b 74f5 ff3a
000003a0: 2cb2 463b e05c 053b d457 313c 08b1 ae3c
000003b0: c13e c03b c6ef 423c 9705 a2ba 4c62 523c
000003c0: db02 0a3c 163f 0e3c 2a4d 093b 8925 173a
000003d0: c61d 193c f95d db39 eaca 123b 6b23 1e3b
000003e0: 803d dc3b 28c3 2c3c 7c6d 7f3b 2ced 4d3c
000003f0: 5ccb 153b 0fa4 783b 2a70 c9bb 6903 52bb
0.0031870934 0.00540852 0.006392304 0.016710553 0.013366017 0.0072053988 0.0035525612 -0.008684758
0.019954922 0.002127609 -0.0010341716 0.009379296 0.015886175 -0.00017355486 0.010177441 0.0009074559
0.0033273294 -0.0024854895 0.0005851483 0.013221079 -0.0023538065 0.0071590478 0.0097063 -0.0027006513
0.0031257304 0.012130211 0.015230049 0.010298048 0.01714198 0.004775262 0.011373376 0.013229808
-0.0044456515 0.010053761 0.010747942 0.023973504 0.009543028 0.00515661 0.0036972442 0.011275068
0.014978662 0.016378278 0.012052132 0.009666856 -0.0021616914 0.009256269 -0.00041402844 -0.0006273821
0.022939963 -0.014258359 -0.002086371 0.0007648972 0.0019060728 -0.016270066 -0.0033948256 -0.012250078
-0.0055256537 0.0037314785 0.006825197 0.0139274625 0.008097361 -0.0035180182 -0.013757082 -0.005511773
0.009308685 -0.0046569672 -0.0030789776 -0.012840011 0.01787399 -0.007982728 -0.003234335 -0.013524446
0.0025735255 0.008461824 0.002649059 -0.015065348 0.0021560208 0.0047530257 -0.016791204 -0.0036263692
-0.00028426354 -0.0044940608 -0.0065158275 -0.019229036 -0.008347822 0.00022003773 -0.0051353364 -0.00414653
0.012935997 0.0058993236 -0.0033001609 -0.005892824 -0.003229911 -0.00437843 0.0014711122 -0.016962683
-0.015425151 -0.005606201 -0.0064220196 0.0018612439 0.017936341 0.0062827743 0.010673277 0.0021204369
-0.005290072 0.00050485384 0.003841128 -0.00914447 0.008634181 0.0134537695 -0.001488151 0.009068651
0.0013578515 -0.0042144475 0.0049704053 0.0055062813 0.0144529985 0.022824554 0.0073625254 0.016841343
0.013237898 -0.003731888 0.0026066357 -0.0018086557 0.023939839 -0.0011888633 0.0137945805 0.00988906
0.014550097 0.022134736 0.014043443 -0.01019017 0.014230058 0.006079637 0.0050941166 -0.0036168515
0.009165496 -0.00885203 0.0023765275 0.0005224047 0.013360281 -0.00935355 0.0063139936 0.012095754
0.015619696 0.02660918 0.010846402 -0.010678705 -0.00023335725 -0.00906778 0.007065854 0.005289192
0.007070768 0.0065665953 -0.0025461619 0.012927911 -0.0066354773 0.0027686402 0.006096152 0.008504014
0.0072763427 -0.010934519 -0.011032103 0.0070555974 0.00032402994 -0.008517982 0.0077211936 0.008845996
0.013367332 0.015100946 0.011077272 0.017690191 0.0073316703 0.023190333 0.009115771 0.0031154188
0.0021875724 -0.0045167957 -0.0010810934 0.0015023894 0.0022588526 -0.00078064704 0.002315013 -0.004126282
0.008180016 0.009213004 0.012466737 0.0019401415 0.011558513 0.014221581 -0.005040758 -0.0023223828
0.008828311 0.0053334055 0.00466434 0.016510036 -0.010606267 -0.0014579464 0.0066594644 0.008748419
0.017517913 0.018505188 -0.012897417 0.012097627 0.014191287 0.0054153064 -0.0010671602 0.001260305
0.009115295 0.003104551 0.0074837976 -0.0022860365 0.013521735 0.01997023 0.021482436 0.008870052
0.012956836 -0.0059022713 -0.0059597045 -0.008149557 0.0005524859 0.012817286 0.01487542 -0.015794253
0.008748726 0.023113916 -0.0009172168 -0.0013407564 0.009577505 -0.0061065424 0.0041048983 0.0019528107
0.00303186 0.0020349547 0.0108241625 0.02132465 0.005866856 0.011897987 -0.0012361285 0.012840819
0.008423532 0.008682033 0.0020950534 0.0005765786 0.009345477 0.0004184095 0.0022398778 0.0024129997
0.0067211986 0.010544576 0.003897517 0.012568753 0.0022856807 0.0037939583 -0.006147404 -0.003204549

CCN.module.branch1.2.conv.bias f4 [32]
00000000: 1640 d2bb f4cb f8bb 292d bcbb 15a3 07bc
00000010: c769 923b be5b d2bb 298f cbbb 2b28 d7bb
00000020: b6b1 a9bb decb ebbb 019e e9bb 540f c1bb
00000030: 92e7 d3bb ca0f 82bb 3627 c1bb a2db e1bb
00000040: 7c82 03bc 4d12 d7bb 41fa d2bb 1a61 edbb
00000050: 1271 7a3c 8608 bcbb 7c37 d1bb 8e19 d6bb
00000060: f1ac cebb de89 0cbb 08a7 5f3c 702d e1bb
00000070: 4a25 b5bb 6c91 cabb a66e 843c 2fa4 b5bb
-0.006416331 -0.0075926725 -0.005742688 -0.008278628 0.004468176 -0.006419628 -0.0062121344 -0.0065660677
-0.0051786555 -0.0071959337 -0.0071294312 -0.00589172 -0.0064668143 -0.0039691674 -0.005894567 -0.0068926373
-0.008026715 -0.006563461 -0.006438524 -0.0072442414 0.015285747 -0.0057383208 -0.006384788 -0.006533808
-0.0063072373 -0.002144448 0.013650663 -0.0068718717 -0.005528127 -0.0061818864 0.016166043 -0.005543254

CCN.module.branch1.4.conv.weight f4 [16, 32, 7, 7]
00000000: 7684 153c e15b c23b c559 103c e314 16bc
00000010: 9c9b 03bc c076 48ba aeb7 443b 1bc1 92bb
00000020: 4b6b 893b 48ba 683a 4eda 053c 11ae 763c
00000030: 6af0 e7bb 5426 8d3c 6a9a 823b 40bb 403b
00000040: 68f2 183c c813 4aba b87a bc3a 8e61 eeba
00000050: 83a0 333c 7d86 283c 6190 7a3b e134 463c
00000060: 028e 403b 517a 0abb 5644 863c 2bff df3b
00000070: 14b5 a13b 50ed d53b 4440 2a3b 6c0d 173c
00000080: a459 9f3b 6cd2 bc39 6a18 683b 133b 2e3c
00000090: eac0 973b 050e a93b c2bf 6f3c 3851 14bb
000000a0: aebd 6a3b e633 143c 91bc 54bb e8e4 bc3b
000000b0: c4d1 913c 4f72 c13b 84ad 3a3c 2df6 ad3b
000000c0: 6bd1 213c b48b 9c3b f6a5 503b a27a 903b
000000d0: db7c 3e3b a794 f53a 66e4 e33b 395e 523b
000000e0: 0f60 14bb 9e73 a53b 5ad8 aa3b 4caf 933b
000000f0: b0f0 e83b 071d 363b 00cd 273a ca4d 3f3b
00000100: 7b37 023c 7568 1f3c a8f9 093b aed7 19ba
00000110: 2834 e13b 1c6d 1a3b 14f4 e33b 0278 77ba
00000120: 8f0a 3c3c 6633 2b3c 42a2 283a cf56 be3b
00000130: 9fd8 6c3b 036a 093c 3325 eabb ca9b ed3b
00000140: 2d4b b83b c22b 2e3b 40f0 c73b 3d4a e63a
00000150: 4a56 45b9 3beb d73b e486 e33b 1fc9 203b
00000160: fcf1 353c 37d8 d03b fd9d ad3b 50e2 d8ba
00000170: 664c 573b 5f1b 013c 38f8 cf3b 9f6b b33b
00000180: d7a8 873b 2564 0b3a 09e3 4c3c 0319 8dbc
00000190: a595 843b 438f 65bc 17e7 92bc f0ed f6ba
000001a0: 21f2 c63b cb6e 8a3b 6a00 4c3c 7252 903b
000001b0: a7a5 603c c3da 2db9 f27e 9f3b d7f8 cfba
000001c0: d85b 953b 0849 763b 1d63 ba3b 4546 3f3c
000001d0: 0e8a 573b 20a4 a73b 5103 8d3c 476c bc3b
000001e0: 977f 373b 4acc b43b 224b 2dbb 5e04 5fbb
000001f0: 6aa8 0e3c 4dfe 793b 389e 733c 2bb0 b83b
00000200: c3bc 9cbb 7fc2 90bb 0ca5 b63c 132a d33b
00000210: daed b33b 5660 c13b 912a 513b 20a6 213c
00000220: 86ee 533c fc9f 573c 09d5 f53b 0b39 1b3c
00000230: 2d27 2c3c 5d78 6bba 6616 e93b 909c a13c
00000240: 5d08 a83a ee60 843b 7a1c a23c 0824 453b
00000250: c41b b23a 74bb e93a b505 c5b8 fa2e b63a
00000260: 5ace f43b ce04 d43b 8d9d f4ba 82f0 3b3b
00000270: 748a 0a3b 2c31 3f3c db10 1d3b 0922 84bb
00000280: 7c85 8c3b c743 fa3b 94e3 e63b 22bf f83b
00000290: 05ef ab3c 8684 b53b c62a b83b b451 713b
000002a0: d31f 163c 457e 733c 0fb7 1dba e9d4 4c3c
000002b0: b5d3 87bb bee0 aa3b 035f 803b 3ff1 433c
000002c0: c4b8 213b a46f 72bb d6c6 a03b 0715 973b
000002d0: dd82 773c ddc4 383c 1918 853b 1abb 2a3b
000002e0: affb 513c 6f6d 953b c86f 1d3c c4fa e03b
000002f0: f2a3 6f3c f223 e73b 50c4 2e3b 31c1 c73b
00000300: c51a 0e3c f957 033c cb9c 5f3c 19b3 0b3c
00000310: f701 25bc d289 d5bb 67bf 25bc 3c1c 4cb9
00000320: 6375 ddbb d005 3abc 85a5 a5bc 1b86 6cbb
00000330: 953e ecb8 7b2f 0dba 558c 3ebb 17e2 773b
00000340: 2b71 d339 ac0c e63b 58e8 743a 930f 1f3a
00000350: bbc4 013c dc51 843b cde5 fe3b 85d0 943b
00000360: 0a8e 803b 3373 cab9 7074 073b 7228 3a3b
00000370: f473 ef3b 7c83 e23b 99fc 8d3c 8068 b83a
00000380: d9d0 833b 10f2 b93b 8d65 5cbb 1ffe 1f3b
00000390: 5ed9 88bb 4d00 3dbb c0aa 223c cae1 093c
000003a0: 1e59 71bb 81b6 383c ca2d eebb 5890 b43b
000003b0: af01 723b 521e 9bbb cc6b 823b dc0b 3b3b
000003c0: 9470 243c 9164 c43b dcee 41bb 4014 1abc
000003d0: c8d2 ae3b 0a6f 473b 3f71 003b d3f1 96ba
000003e0: cf58 653a 8c14 a03b a064 be3b 7500 1c3b
000003f0: 3fc3 9c3b b50c 023a bdfa 84bc d6c0 af3b
0.009125819 0.005931363 0.008810465 -0.009160253 -0.008032706 -0.00076470897 0.0030016708 -0.0044785864
0.0041936985 0.0008877856 0.008169724 0.015056149 -0.00707822 0.01723019 0.0039856927 0.0029408485
0.009335138 -0.0007708636 0.0014379835 -0.0018187033 0.010963562 0.010285971 0.003823303 0.012097568
0.0029381518 -0.0021130035 0.016390007 0.0068358383 0.0049349163 0.006528534 0.0025978247 0.009219509
0.004862981 0.0003601493 0.0035414943 0.010634202 0.0046311514 0.005159142 0.014633121 -0.0022631418
0.0035818624 0.009045577 -0.0032461027 0.0057645924 0.01780022 0.005903519 0.011393908 0.0053088875
0.009876589 0.004777396 0.0031837202 0.00440915 0.002906612 0.0018736318 0.0069547174 0.0032099618
-0.0022640263 0.005049183 0.0052137794 0.004506981 0.0071087703 0.0027788298 0.0006401092 0.0029190653
0.007947798 0.009729494 0.0021053348 -0.00058686256 0.0068726726 0.002356357 0.0069565866 -0.0009440185
0.011477127 0.010449266 0.00064328697 0.0058086882 0.0036139858 0.008387092 -0.007145548 0.0072512375
0.005624196 0.0026576375 0.006101638 0.0017569732 -0.00018819529 0.006589321 0.0069435704 0.002453394
0.011105057 0.006373431 0.0052983747 -0.0016546939 0.0032851934 0.007880061 0.0063467287 0.005475476
0.0041400003 0.0005317352 0.012505301 -0.01722384 0.0040461593 -0.014011207 -0.017932458 -0.0018839221
0.0060713445 0.0042246333 0.012451271 0.0044043595 0.01371137 -0.00016580061 0.004867428 -0.0015867007
0.004558068 0.003758015 0.0056880848 0.011674468 0.0032888683 0.005116001 0.017213495 0.0057502124
0.0027999633 0.005517517 -0.0026442488 -0.0034029703 0.008707145 0.003814596 0.014869265 0.0056362352
-0.0047832443 -0.004417717 0.022295497 0.0064442246 0.0054910006 0.0059013767 0.003191624 0.009866267
0.012935286 0.013160702 0.0075022024 0.009474049 0.010507387 -0.0008982474 0.007113266 0.019727975
0.0012819875 0.004039875 0.01978897 0.003008129 0.0013588597 0.0017832355 -9.394755e-05 0.0013899498
0.007470888 0.0064702993 -0.0018662676 0.002867729 0.0021139653 0.011669438 0.0023966345 -0.0040323776
0.0042883735 0.007637474 0.0070461724 0.007591144 0.020987997 0.0055394797 0.0056203334 0.003682238
0.009162861 0.014861648 -0.00060163526 0.012501934 -0.0041451105 0.0052147796 0.0039175763 0.011959373
0.002467678 -0.0036992813 0.0049065156 0.004610661 0.015106884 0.011277405 0.0040617106 0.0026051463
0.012816354 0.0045601646 0.00960917 0.006865831 0.01462649 0.0070538456 0.0026667304 0.0060960283
0.008673375 0.00801658 0.013648222 0.008526587 -0.010071269 -0.0065166736 -0.010116435 -0.00019465474
-0.0067583784 -0.011353925 -0.020220527 -0.0036090675 -0.00011265014 -0.0005385798 -0.0029075344 0.003782397
0.00040329373 0.0070205536 0.0009342483 0.00060676894 0.007920439 0.0040380787 0.007778859 0.004541459
0.0039231824 -0.00038614272 0.0020668767 0.0028405455 0.007307524 0.006912647 0.017332362 0.0014069229
0.0040226993 0.005674608 -0.0033629865 0.0024412943 -0.004176303 -0.002883929 0.009928405 0.008415649
-0.00368268 0.011273981 -0.007268642 0.005510371 0.0036927273 -0.004733839 0.0039801355 0.0028541004
0.010036606 0.0059934338 -0.0029591834 -0.009404242 0.0053351857 0.0030431175 0.001959875 -0.0011516161
0.000874889 0.004885262 0.0058103353 0.0023803983 0.0047840173 0.0004961 -0.016232843 0.005363564

CCN.module.branch1.4.conv.bias f4 [16]
00000000: 8260 1dbc fd32 0ebc d919 ddbb ac15 ecbb
00000010: bfdc 1fbc f828 5f3c c183 85bb 1961 cfbb
00000020: 2f13 24bc e5bb f0bb 4811 b1bb b4e7 563c
00000030: 9b4f d5bb e80b b6bb 2a0a d1bb c5bd dcbb
-0.009605529 -0.008679149 -0.006747466 -0.007204732 -0.00975722 0.013620608 -0.004074544 -0.0063287136
-0.010014339 -0.0073466175 -0.0054036714 0.013116766 -0.006509734 -0.0055556186 -0.0063793855 -0.0067364895

CCN.module.branch1.5.conv.weight f4 [8, 16, 7, 7]
00000000: 543a 0d3c 5af4 c23a 260e 083b 8b37 56bc
00000010: 6176 86bc 0e73 61bb 9039 7cbb fd75 0ebb
00000020: c3f8 043c a395 e6bb 7b91 873b b7ce 54bc
00000030: 06fe 42bb 9273 003b ce5f b03b 5a59 59bb
00000040: 0fbd 1abb af35 203c d02e 6c3c 43bc e03b
00000050: ff96 3d3c a84b 813c 3d18 b93c de8c 223c
00000060: 39f7 2b3c 9562 2f3c d447 b73b 9c0e a03c
00000070: a359 3fbb 18fe 153c a1c3 d33c 475f 613c
00000080: e4eb 253c 3a76 d73b 9072 153b 783a a8bb
00000090: 27e5 483c 02a2 173c d1b0 2bb9 3b3e 053c
000000a0: e33b c83b 1b60 643c e09b 903b 959d 3cbb
000000b0: 6c4a 043c d873 92bc 4d4e e53a d389 de3b
000000c0: 8b76 ae3b 7cca 203b 6259 493b fe9d 41bc
000000d0: 4d4c bb3c 9fe6 ff3b b72e 1ebc 9f5a 4d3c
000000e0: ee84 e7bb 1918 4fba 9333 a0b9 7d5f 783c
000000f0: 9bd0 f4bb f529 03bc 8801 fd3b ce9b 863c
00000100: 1c07 ba3b 91c4 1bbb 8c5f 3c3c cf5a 633a
00000110: c964 313c a57c 163b edaa 133a ddf1 103c
00000120: 1f2f ff3a 5589 8c3c ee6e 083b bf44 a33c
00000130: f2f1 b53c 1494 8d3c 3333 29bc ed46 093c
00000140: ebc9 8c3c 471a c03c 5ae3 c9bb 6573 a13b
00000150: 92d5 723c 63fd 9a3b 7741 923b f92f 8ebb
00000160: 34b8 873a a429 373c b68a 7339 7f4c ef3c
00000170: fba3 853c 36a8 cb3c 578f 6d3c 06b4 c43b
00000180: 1a27 b13c 2021 f53a e72d 673b edd0 f9ba
00000190: 3397 803c 51af afbb 1419 843b 0531 9abb
000001a0: 6cfe 98bc 3589 79bc 88ab 823c a657 393c
000001b0: 2968 673c e0b9 6e3c ce4c 843c e4bc c53b
000001c0: 5694 883c 91fb da3b 8d69 c43b ab45 79bb
000001d0: 55d1 7f3c c4f9 583c a9e7 693c 240b a33c
000001e0: 15e5 d73a 8577 293c dc54 003b b38c 183c
000001f0: f83a ce3c d9da 203d 8940 923b 0fbd 1e3c
00000200: f392 8b3c db62 1b3c bc2b 34bb a8ac bab9
00000210: dab0 2c3b 84fb 343c 012a a23c 18c9 c93b
00000220: a097 d2ba a5a7 843c c113 853a d8a0 db3b
00000230: 0384 ab3c 38ed 0c3c 8342 633c 0f45 ab3c
00000240: 41b0 b2bb 5855 853c 8c25 0fbb da87 dfba
00000250: 207e b23b 985c 37bc e9e3 b93b 9465 8f3b
00000260: f92c a339 ce95 003b 0d33 d03b 63cb bd3b
00000270: 23ee 773c c769 023c 9e6b 50bb 0353 f83b
00000280: bf77 953b d8cf 06bc 8a62 f9ba fce5 863b
00000290: aa27 1f3c 9417 523c 37ef f23c a848 7a3c
000002a0: 2a3e c13b 0721 ab3c 9b4d 8a3c 876f 553c
000002b0: c745 463c 0f8b 653a 9a68 d73c 2656 113c
000002c0: 13b1 0bbb 1408 743c 1a72 513c 98cd af3b
000002d0: 359e a73b f185 c43b 7520 903c 3f74 813c
000002e0: 5f98 0bb9 c439 c03b 487e 383b cf53 523c
000002f0: 1d88 823a 267d 2bbc 1f50 253c eecf 94ba
00000300: 74c1 ce3a 70fc 8938 89d7 033b 3ac8 d33b
00000310: 1963 dd39 29c0 1e3c 7a5c b73b 8d69 c9bb
00000320: eadd 873c a07e 173c 4ac6 033c 2fae 153c
00000330: ea0d b939 08ab 8239 a9d1 493c 69ad 95bb
00000340: 26e5 473c d7ff 803b f564 a93b 3eb4 5f3c
00000350: 8698 3f3b 2bbe 553b 70f2 643c 8a10 033c
00000360: 7b97 0b3c 7912 083c cec7 0e3c 3bf4 18ba
00000370: 9087 dc3b 8fb8 2f3c e347 16bb a64a c93b
00000380: 7705 9d3c e614 553c a8bd 473c 3a31 743c
00000390: 123b 6c3c e97b 933b 7066 883b 4a44 403c
000003a0: 2d3b 363c 92a2 4eba 47d7 473c 2f64 f23b
000003b0: 9aa8 c2ba 30f8 493b c7be 183c 6e4d 5e3c
000003c0: b859 25bc 1f8f f439 7418 603b 1b79 903b
000003d0: 873e e43c fe5c a1bc e88e cdbc 5bf8 44bc
000003e0: 6d97 90bc dd1b 35bc 059d 2bbc 08c7 49bc
000003f0: aec2 58bc 5d4d 85bc 5241 6dbc 11c8 4dbc
0.008619864 0.0014873848 0.0020760386 -0.013074766 -0.01641387 -0.0034400853 -0.0038486458 -0.0021737807
0.00811595 -0.007036881 0.0041372157 -0.012988738 -0.002975346 0.0019600135 0.0053825146 -0.003316483
-0.0023611223 0.009778424 0.014415458 0.00685838 0.011571645 0.015783146 0.022594566 0.009921281
0.010495954 0.010704656 0.0055932794 0.019538216 -0.0029197715 0.009154819 0.02585012 0.013755626
0.0101270415 0.006575373 0.002280388 -0.005133923 0.012261665 0.009254934 -0.000163737 0.008132513
0.0061106547 0.013938929 0.004413113 -0.002878045 0.008074384 -0.017877504 0.0017494649 0.0067913323
0.00532419 0.0024534753 0.0030723442 -0.011817453 0.022863531 0.0078094746 -0.009654692 0.012533813
-0.007065407 -0.0007900014 -0.00030556004 0.015159485 -0.007471157 -0.008005609 0.00772113 0.016431715
0.005677117 -0.0023768286 0.0114973895 0.00086728943 0.010827252 0.0022962478 0.0005633075 0.008846727
0.0019468999 0.017155329 0.0020818072 0.019930242 0.022210095 0.017282523 -0.010327148 0.008378726
0.017186126 0.02345003 -0.0061611356 0.004927086 0.014821427 0.004729913 0.0044633704 -0.004339215
0.001035458 0.0111793615 0.0002322596 0.02921128 0.016313544 0.024860483 0.014499507 0.006002906
0.02162509 0.0018701889 0.0035275163 -0.0019059457 0.015697097 -0.0053614755 0.00403131 -0.0047055506
-0.018676005 -0.015230467 0.015950933 0.011312401 0.014123955 0.014570683 0.016149905 0.0060344804
0.016672295 0.006682821 0.005994028 -0.003803591 0.0156138735 0.0132431425 0.0142764235 0.019902773
0.001647147 0.010343437 0.001958183 0.009310889 0.025174603 0.03927121 0.0044632596 0.00968863
0.017037844 0.009484018 -0.0027491888 -0.00035605324 0.002635053 0.011046294 0.01979542 0.0061580054
-0.0016066916 0.01619322 0.0010152982 0.0067025237 0.020936972 0.008601479 0.013870838 0.020906953
-0.00545314 0.016276047 -0.0021842448 -0.0017054037 0.005447164 -0.01119151 0.005672921 0.0043761227
0.0003112329 0.001962054 0.006353742 0.005792068 0.01513246 0.00795979 -0.0031802426 0.007578255
0.004561394 -0.008228265 -0.0019026559 0.0041167717 0.0097140465 0.012823004 0.029655082 0.015276112
0.005897303 0.020889772 0.016882708 0.0130270785 0.012101597 0.0008756378 0.026294995 0.008870637
-0.0021315261 0.014894504 0.012783552 0.005365085 0.0051152953 0.0059974124 0.017593602 0.0158025
-0.00013312836 0.005866261 0.0028151441 0.012837364 0.0009958778 -0.010466849 0.010089903 -0.0011353472
0.0015774206 6.579689e-05 0.0020117483 0.006463078 0.00042226238 0.009689369 0.005595741 -0.006146616
0.016585309 0.009246498 0.008042881 0.009135767 0.00035296316 0.0002492296 0.012318053 -0.0045677912
0.012200629 0.0039367485 0.0051695057 0.013653813 0.0029235198 0.003261457 0.013973817 0.007999549
0.0085200025 0.0083051855 0.008714629 -0.0005834733 0.0067300275 0.010725155 -0.0022931031 0.006142932
0.019167645 0.013005471 0.012191214 0.014904315 0.01441838 0.004500855 0.004162602 0.011735031
0.011122507 -0.0007882501 0.012197322 0.0073971967 -0.0014851273 0.0030818097 0.009322829 0.013568265
-0.010092191 0.0004664594 0.0034194263 0.004408968 0.027861847 -0.019697662 -0.025092557 -0.012022103
-0.01765033 -0.011054006 -0.010474448 -0.012315519 -0.013230009 -0.016272241 -0.014480906 -0.012559907

CCN.module.branch1.5.conv.bias f4 [8]
00000000: 3e2f 90bb 6fc7 adbb bdb8 0bbc 0a32 2f3c
00000010: 44a9 533c 8b1f 0abc 5bd6 2f3c 9f68 91bb
-0.004400163 -0.0053033154 -0.008527932 0.010693083 0.012918774 -0.008430372 0.010732259 -0.0044375206

CCN.module.branch2.0.conv.weight f4 [20, 3, 7, 7]
00000000: de56 5bbc 6cf9 2cbc 1859 30bc 8460 91bc
00000010: fc59 30bc 45b9 2c3c d6cc 1dbc 7c0e 21bc
00000020: 26a0 21bb c053 17bc 8dd6 57bb 80b4 37bc
00000030: f4f8 28bc e732 17bc 8a3e 41bc a877 1dbc
00000040: fb75 28bc c236 8fbb 2c02 19bc 774f 1fbc
00000050: b515 0dbc 9be8 7dbc 0bc2 23bc 51c2 b3bb
00000060: b76a 22bc b3a1 1fbc 3e29 edbb 69fc 12bc
00000070: 3aba 0fbc 8f58 16bc baf4 09bc 9857 32bc
00000080: 51ad 38bc 27e7 10bc fd09 08bc 5214 02bc
00000090: 0999 8cbc 2c08 15bc 73c9 13bc 48b7 15bc
000000a0: 8ef6 0abc 72e1 cfbb a07c a9ba 25f2 fdbb
000000b0: 83d7 b6ba 3bfd 8cbc f641 10bc dab0 f1bb
000000c0: a0d9 dabb 2368 e0bb 6f23 01bc 1a11 03bc
000000d0: 8eae 1ebb 9d3a 00bc e4f4 d5bb 1fee e9bb
000000e0: 3435 c8bb 6e5d d2bb 8ec8 f9bb baaa 06bc
000000f0: 7a4b 90bb 71e3 8b3a bb06 afbb a7dd 3dbb
00000100: 51a3 fd3b d5c1 c7bb b41a c3bb 1e81 b5ba
00000110: 1f5e b4bb e305 dbbb bebc a4bb 8df9 03bb
00000120: 8e95 b0bb e5ff 0dbc 408c 90bb e21d 84bb
00000130: 29fd 77bb 45e6 2bbc 6362 13bc 899e abbb
00000140: fd47 8abb 49f1 93bb e2d2 71bb 234e 7f3b
00000150: 3c04 0fbb 169d 66bb e439 87bb 387d 86bb
00000160: 622b 213b 1e20 9e39 9535 87ba 3c64 8fb8
00000170: b3d5 0fbb b60d e3bb 45b1 91bb 4663 063a
00000180: 4115 58ba 5b8d 9cba 321b 87bb 1a72 08bb
00000190: 365f a2bb ca05 abbb 9705 95bb dc4b 43bb
000001a0: e8ef 17bb bc4a 4d3b 6ba1 73bb d5b2 153b
000001b0: df95 8dbb 7ae8 103c 948b 51bb a368 84bb
000001c0: f99c 4dbb aeaa dfba ff5b 0ebb 67bb 33bb
000001d0: 9b4e 54bb bf1c 51bb d5b7 553c d2a0 e63b
000001e0: 7a80 c5ba 691b adba 80d4 3cbb c9a1 0fbb
000001f0: d043 4ebb 1a9c c93b 9b12 7dba d6bb 883b
00000200: 543e 95bc 0437 b037 97df b4ba cab8 e0b9
00000210: a741 fd39 a596 543b 480c 30ba e8fb 8bba
00000220: b573 71ba bf01 d639 01fe 183a d0ef e53a
00000230: 7957 b53b 0c00 823a 6739 02bb ffd9 30ba
00000240: 528a af3b dab3 4f3a d1cf 303b 4343 eabb
00000250: f43d 40bc 8d67 22bc ea5b b1bc c0ed f2bb
00000260: e74a 11bc 5a24 23bc 22fb fdbb d626 83bc
00000270: 34d8 5bbc 522b 1cbc 462a 1cbc f04d f8bb
00000280: f214 2bbc eeec 68bb 21e8 a83b cca9 40bb
00000290: 3b26 ddbb 3118 e6bb 982c 0fbc 053a 8abc
000002a0: 97df 15bc 5121 d5bb 7e29 e6bb 8f41 a4bb
000002b0: 9266 07bc 280e febb 7166 ebbb 7be1 83bc
000002c0: 0e24 67bc 92ff abbb 18b0 94bb ec21 9dbb
000002d0: 6825 00bc 3da3 5fbc f4e7 3fbb b763 7fbb
000002e0: 4a96 d6bb de36 f7bb ccea 24bb dc74 cbbb
000002f0: ba7f 10bc b2ed ac38 0008 3bbb 77fb 9fbb
00000300: 094d 4fbb c3c5 88bb d9a5 0dbc a08e c13b
00000310: 93e8 c5bb 065f 59bb ce06 053a 3eea 39bb
00000320: 2a9f fe3a efa2 dbbb 0883 aabb 4f97 a2ba
00000330: 87e7 34bb 978e 72bb d129 c73b 96d4 e9bb
00000340: 07a1 abbb 4610 c6bb 7045 b8bb df0d 01bb
00000350: b8f0 8cb9 4292 563b d09c f4ba 647f 1abb
00000360: 6a0e 863b a608 b539 6658 b6ba 02d0 98bb
00000370: ebb3 3cbb c733 24ba c244 1bbb 0b40 843a
00000380: 38e0 dc3a c110 1d3b 28fa cd3a 11c8 523a
00000390: 57a7 4db9 f7f3 f4bb e263 033b 3d50 973b
000003a0: 0ca5 033c 8063 6f3b d872 d4bb 65c5 b03b
000003b0: f806 c03b 0321 7dbc f056 153c 879c eb3b
000003c0: 9e2f 203c a40b fb3b 2b40 0d3c 6acf e63b
000003d0: 14cd 213c 6291 2eba bcfc ae3a c12c 003b
000003e0: 8938 ff3a e10a 993b e242 2a3a f158 7e3a
000003f0: b645 313b 98fc 883c 6c33 e63b 9c77 5fbb
-0.01338741 -0.010557514 -0.010763429 -0.017746218 -0.010763641 0.010542219 -0.009631356 -0.0098301135
-0.0024662106 -0.009236276 -0.0032934279 -0.011212468 -0.010313261 -0.009228445 -0.011794696 -0.009611048
-0.010282035 -0.0043705413 -0.009338897 -0.009723536 -0.008611132 -0.015497352 -0.009994994 -0.005485811
-0.009913138 -0.009743142 -0.0072375825 -0.008971312 -0.008772427 -0.009176387 -0.008420164 -0.010885142
-0.011271791 -0.0088441735 -0.008303163 -0.007939415 -0.017162817 -0.009096187 -0.009020197 -0.009137936
-0.008481635 -0.006344014 -0.0012930818 -0.007749813 -0.0013949726 -0.017210593 -0.008804789 -0.0073758187
-0.006678775 -0.0068483516 -0.007881983 -0.007999683 -0.002421293 -0.0078264745 -0.0065294374 -0.007138982
-0.006109858 -0.006419829 -0.007622785 -0.008219415 -0.0044035288 0.0010672641 -0.0053413785 -0.0028971226
0.007740416 -0.0060961046 -0.005954111 -0.0013847684 -0.005504384 -0.0066840514 -0.0050273826 -0.0020137758
-0.005388922 -0.008666967 -0.0044112504 -0.0040318826 -0.0037840104 -0.010491912 -0.008995625 -0.0052374047
-0.0042200075 -0.0045148474 -0.0036899378 0.0038956485 -0.0021822592 -0.0035188845 -0.004126774 -0.0041042827
0.0024592509 0.00030160038 -0.0010315651 -6.8374415e-05 -0.0021947443 -0.0069291247 -0.004446181 0.0005126487
-0.0008242913 -0.0011943983 -0.004123115 -0.0020819963 -0.0049551977 -0.005219196 -0.0045477855 -0.0029799854
-0.0023183767 0.0031325063 -0.003717507 0.0022842188 -0.0043208445 0.008844489 -0.0031974064 -0.004040794
-0.003137408 -0.0017064416 -0.0021722314 -0.0027424933 -0.0032395485 -0.0031908003 0.013044317 0.0070382142
-0.0015068196 -0.0013207021 -0.0028813183 -0.00219165 -0.0031473525 0.006152642 -0.00096539565 0.0041727824
-0.018218197 2.1006454e-05 -0.0013799545 -0.00042862288 0.00048304835 0.0032438424 -0.0006715697 -0.0010679932
-0.0009210662 0.00040818562 0.00058361894 0.0017542783 0.005534109 0.0009918227 -0.001987064 -0.0006746351
0.0053570652 0.00079232233 0.0026979337 -0.0071491315 -0.011733521 -0.009912384 -0.021650273 -0.007413596
-0.008867956 -0.009957397 -0.0077508846 -0.01600973 -0.013418246 -0.009531813 -0.009531563 -0.0075776502
-0.0104420055 -0.0035541612 0.005154625 -0.0029398082 -0.006748942 -0.007021927 -0.008738659 -0.016873369
-0.009147546 -0.0065042158 -0.007023989 -0.005012698 -0.008264201 -0.0077531524 -0.007183843 -0.016098728
-0.014107717 -0.005248972 -0.0045375936 -0.0047953036 -0.007821418 -0.013649759 -0.0029282542 -0.0038969347
-0.0065486776 -0.0075443825 -0.0025164364 -0.006208999 -0.008819515 8.245873e-05 -0.0028538704 -0.004882272
-0.003163161 -0.0041739657 -0.008645498 0.005906895 -0.006039688 -0.003316821 0.00050745613 -0.002836838
0.0019426097 -0.006702773 -0.0052036084 -0.0012404713 -0.0027603821 -0.003701126 0.006077983 -0.007135938
-0.005237702 -0.0060444204 -0.005623512 -0.0019692106 -0.0002688223 0.0032740985 -0.0018662456 -0.0023574466
0.0040910738 0.00034529454 -0.0013911843 -0.0046634683 -0.0028793763 -0.0006263819 -0.0023692106 0.0010089887
0.001685149 0.0023966285 0.0015714811 0.00080406765 -0.00019612662 -0.007475372 0.0020048548 0.0046177194
0.008034956 0.0036527812 -0.006483417 0.005394625 0.0058602057 -0.015449765 0.009114966 0.0071902904
0.009776978 0.0076613 0.008621256 0.0070437687 0.009875555 -0.0006659237 0.0013350467 0.0019557925
0.0019471805 0.0046704863 0.00064949517 0.00097025844 0.0027049608 0.016722009 0.007025173 -0.0034098392

CCN.module.branch2.0.conv.bias f4 [20]
00000000: a3d7 4e3c 42cd 3d3c 081c 183c f1f5 453c
00000010: 6a08 8cbb ee12 8b3c c2cd 5a3c fdcd 1a3c
00000020: e5c9 873c 4bb9 213c dd6a 823c 4e89 90bb
00000030: 6b80 4e3c 7143 263c d1d2 643c f989 393c
00000040: 2f98 b4bb 79d7 4d3c 151d 423c d100 433c
0.012624654 0.011584582 0.009284027 0.012082563 -0.004273464 0.0169768 0.013354721 0.0094485255
0.016575763 0.009870837 0.015920097 -0.0044108992 0.012603859 0.010147915 0.013966278 0.011324399
-0.0055113058 0.01256358 0.011847754 0.01190205

CCN.module.branch2.2.conv.weight f4 [40, 20, 5, 5]
00000000: 63d3 4d3b 5226 493a 25b8 ac3b d209 7eba
00000010: 4e7a 923a 0a20 98bb b19f 053b 8b03 2c3b
00000020: e8bf e13a eaef d63a 3441 1f3c 4305 f539
00000030: 96c1 083b a5d5 073b 3571 0c3b 9383 0a3b
00000040: a781 243b 3625 1f3b 9e0a 493b 1925 2e3b
00000050: cd7c 4f3b eeb4 bf3b 62a4 143b dc85 4fbb
00000060: a207 e1bb 6338 e13b 1d75 923c c509 e43b
00000070: 9d24 e43b d2f9 dd3b 26de 813b 65a9 ed3b
00000080: 2f0f 0a3c a534 763a c327 a23a 86d1 e63a
00000090: bba8 113c 2eaf 173c d637 963b 5716 0d3c
000000a0: 264b 1b3c 438f 083c 223c 243c e01d 1b3c
000000b0: 43d7 ff3b 6ee1 dd3a 04f5 2c3c dbe8 3c3c
000000c0: 33b3 2e3c c3f2 283c f0ee 553b 0b8d 123b
000000d0: 4cf6 ea3a 936a 113c f5cd 113b 736a 1b3b
000000e0: 333d 923a 6d9b 46bc 111e 03bc e435 a53b
000000f0: f68c 433a a9e7 9737 5c42 be38 1654 013b
00000100: 50db 0138 21e8 0c3a 64f5 ddba 89f1 62ba
00000110: ceb1 adba 42d5 ec38 5b00 4b3a 714d a8bb
00000120: 8a67 3ebb 8089 06bb e60e 0e3b c45c 743b
00000130: 3189 7b3b 000e 893b 39e0 833b 516b 7d3b
00000140: f941 8c3b 1f99 7b3b b057 8a3b 42cd 9b3b
00000150: 7086 943b 3f50 013c 6903 be3b d469 d63b
00000160: ca66 163b 49c0 b73b ff24 fa3b 357e ea3b
00000170: 7419 833b 572c f13b eba6 ee3b ef77 743a
00000180: 0a1c 003c 76a2 033c 3044 033c 6eb5 1c3c
00000190: 6086 95bb a52b bebb 3363 afbb 489e b3bb
000001a0: aed3 fcbb 6178 97bb 1e02 86bb 07ca 07bb
000001b0: 407e 7ebb 7c31 43bb 5256 c2bb ef67 78bb
000001c0: 083d 993a a643 74bb eae5 69bb 32ff 4abb
000001d0: f390 86bb 63b3 92bb f7e7 00bc f772 6fbb
000001e0: fce5 10bb 7f76 14ba 5d1d 71bb 1de0 40bc
000001f0: 1d45 17bb e562 f73b 8b70 023c b60f 073c
00000200: 3ef6 063c 64ab 183c 98bf e83b 93dc e33b
00000210: dc4a 8a3b c63d f63b cd2e 123c 11aa d03b
00000220: c3c6 c13b e3e3 b53b b68b cd3b 73b5 b43b
00000230: d165 b33b 1803 a33b 3fe0 c8ba 8bea 8a3b
00000240: 1fc6 ac3b 0f2f 003c ea59 883b 953e 3d3b
00000250: c9b4 003b dc05 a43b 37ba 163b 3ff5 4a3b
00000260: 827c 683b d9c0 dc3b 4f72 7e3b 4217 6f3b
00000270: cf7b 8f3b 9202 843b af53 863b 9886 363c
00000280: 2532 d13a d9ea 9f3b 182f ad3b ba1f 783b
00000290: 9820 a53b 7d1f bc3b 633a ca3b b23d d13b
000002a0: 5561 5f3c 4f07 b93b 2ad3 f43b 33c7 d33b
000002b0: 5bb6 fb3b 7512 113c 16b4 4a3b 8fb5 8e3b
000002c0: b194 953b 735f 033b 5d1c 933b b75a 843b
000002d0: 7239 d43a 7ab8 913b 28d9 153b cb58 0d3c
000002e0: 39d2 a33b f437 bc3b b00b c93b af1e 103b
000002f0: adf3 c63b 9002 c43b 7901 e43b 3876 ed3b
00000300: 3a76 f73b cf1a d53b 1849 f23b d963 f83b
00000310: 4dbe 443c 8a3f 043c ed5e 013c df7a 023c
00000320: dedb 813c c10a 2c3c d23e 3d3c ffd5 2d3c
00000330: 820f 4a3c 4b62 193c dfa5 223c ddbe 783b
00000340: 0fc6 333c 0979 1d3c 921d 093c dd55 153c
00000350: 8e83 023c cec2 e93b 5caf 003c e6d5 c63b
00000360: cf7f fb3b fc11 ec3b 846d d93b 6043 dc3b
00000370: df9e c83b fdfc b43a 1f1a 903b 64f0 c63b
00000380: a2e7 3e3c b698 853b 7987 8a3b 6939 423b
00000390: d1db 7b3b 453d 733b ab12 4e3b 15b5 8a3b
000003a0: 5133 863b c9d1 873b 1db9 853b 275b 9c3b
000003b0: f5ae 8a3b 72b2 9d3b 92a6 a33b 2fe8 a13b
000003c0: aec9 ac3b 27ee fb3a cc0c c03b 3083 cd3b
000003d0: c551 5f3b 7261 943b c077 9b3b c2e2 c93b
000003e0: d193 9c3b 8414 0b3c 5faa a63b 7b2b c4bb
000003f0: a5c1 463b 58b5 643b 3574 983b 57f1 70bb
0.0031406514 0.00076732517 0.005270975 -0.00096907944 0.0011175366 -0.004642491 0.0020389373 0.002624723
0.001722333 0.0016398404 0.0097201355 0.00046733962 0.002086734 0.0020726707 0.0021429781 0.0021135553
0.0025101693 0.0024283654 0.0030676494 0.0026572405 0.003166008 0.005850426 0.0022680988 -0.003166548
-0.006867365 0.006873177 0.01787811 0.0069591724 0.0069623725 0.0067741657 0.0039632497 0.0072528594
0.008426472 0.0009392 0.0012371469 0.001761005 0.008890326 0.009258075 0.004584293 0.008611283
0.009478366 0.0083349375 0.010024102 0.009467572 0.0078076436 0.0016928145 0.010556463 0.011530126
0.010662842 0.010311785 0.0032643639 0.00223619 0.0017926185 0.008875507 0.0022248004 0.0023714572
0.0011157155 -0.012122017 -0.008002774 0.0050418247 0.00074596645 1.8108478e-05 9.0722664e-05 0.0019733957
3.0960247e-05 0.0005375166 -0.0016934094 -0.00086572074 -0.0013251842 0.00011293079 0.00077438884 -0.005136185
-0.0029053413 -0.0020528734 0.002167636 0.0037286738 0.0038381333 0.004182577 0.004024532 0.0038668702
0.0042803255 0.0038390828 0.004221879 0.0047546932 0.0045326278 0.007892667 0.0057987464 0.0065433774
0.002294945 0.005607639 0.007633805 0.0071561583 0.004000837 0.007360022 0.0072830818 0.0009325733
0.007819185 0.008034339 0.008011863 0.009564741 -0.004563138 -0.0058035427 -0.0053524016 -0.005481515
-0.007715664 -0.0046225046 -0.004089608 -0.0020719783 -0.0038832575 -0.0029784134 -0.0059307003 -0.0037903746
0.0011691162 -0.0037271767 -0.0035690018 -0.0030974862 -0.0041066348 -0.004476951 -0.007867805 -0.003653703
-0.0022109738 -0.0005663409 -0.0036791184 -0.011772183 -0.0023081966 0.007549631 0.007961403 0.008243492
0.00823742 0.009318206 0.007102918 0.0069537847 0.0042203497 0.007514688 0.008922291 0.0063679297
0.005913587 0.005550848 0.0062727584 0.0055147945 0.005474784 0.004974734 -0.001532562 0.0042393855
0.0052726413 0.00782372 0.004161109 0.0028876413 0.0019639006 0.0050055813 0.0022999176 0.0030968932
0.0035474603 0.0067368564 0.0038825457 0.0036482369 0.004378773 0.0040286267 0.0040993313 0.011140488
0.0015960379 0.004880291 0.005285155 0.0037860707 0.005039286 0.0057410584 0.006171511 0.0063855285
0.013634046 0.005646623 0.007471462 0.0064629554 0.0076816506 0.008854498 0.0030930093 0.0043551396
0.0045648445 0.0020045906 0.004489465 0.0040391344 0.0016191436 0.00444704 0.002286503 0.008627127
0.0049994257 0.005743975 0.0061354265 0.0021990945 0.006071529 0.005981751 0.0069581834 0.007246759
0.0075519355 0.00650344 0.0073939674 0.007580262 0.012008262 0.0080717895 0.007896167 0.007963865
0.015851911 0.010500611 0.011550622 0.010610103 0.012332799 0.009361814 0.009927242 0.003795556
0.010972514 0.009611377 0.0083688665 0.00911471 0.007965935 0.007133818 0.007854309 0.006067979
0.007675148 0.0072042923 0.0066353697 0.006721899 0.0061224545 0.0013808307 0.004397645 0.0060711373
0.011651905 0.0040770425 0.0042275754 0.002963627 0.0038430581 0.0037115377 0.0031444232 0.0042330124
0.004095473 0.0041448814 0.004080905 0.0047716084 0.0042322823 0.004812532 0.004994222 0.0049410085
0.0052730655 0.0019220755 0.0058609005 0.0062717423 0.0034075838 0.004528218 0.0047445 0.006161065
0.0047783633 0.008488778 0.005086228 -0.0059866286 0.0030327823 0.0034898128 0.004652525 -0.0036764944

CCN.module.branch2.2.conv.bias f4 [40]
00000000: baf2 633c 4cdd 853c 71d6 6f3c 3841 273c
00000010: 69df 273c e90e 1b3b 3570 3f3c 8db0 ea39
00000020: 52b9 493c 0586 383c 4ee1 d93b aded 303c
00000030: e7a7 163c dc19 473c fd69 183c 6415 363c
00000040: a2c7 433c a370 2c3b e89b 923a 7ed2 6e3a
00000050: 6008 653c 7180 6e3c dcfb 2a3c 068d 4d3c
00000060: 92e2 173c 5a51 4a3c 401f 163c 319f 433c
00000070: 7cf0 f23a cc8f 5c3c 9ab1 f039 6ae7 6b3c
00000080: 2274 4a3c aaf2 1e3c ca18 353c 16f9 4f3c
00000090: 6c37 4b3c 228c 263c e812 4e3c a1fc 243c
0.013912851 0.016340874 0.014638529 0.01020842 0.010246136 0.002366001 0.011684467 0.000447635
0.01231225 0.0112624215 0.006649173 0.010798854 0.0091953045 0.012152161 0.009302613 0.011113498
0.011949452 0.0026312254 0.001118538 0.0009110345 0.013979048 0.01455699 0.0104360245 0.01254583
0.009270327 0.012348497 0.009162724 0.01193981 0.0018534805 0.013462018 0.0004590869 0.014398435
0.01235679 0.00970141 0.011053273 0.012693664 0.01240335 0.010165246 0.01257775 0.010069997

CCN.module.branch2.4.conv.weight f4 [20, 40, 5, 5]
00000000: b5e4 853b ecb4 3f3b 520b b43b 5de1 ac3b
00000010: cbde 973b 10b2 983b 6d82 b93b 277a ca3b
00000020: 0cc4 c73b 8ae6 e43b bc22 cb3b c214 bc3b
00000030: fa6e 873b 6ad1 d33b 047e 293c 67d6 963b
00000040: eebf c13b 3fd2 a43b 5096 9e3b ec7a 883b
00000050: 444b 60bb ad0e 9e3b c9c5 ce3b 41fd bd3b
00000060: f16a 933b d98a 843a 6b58 a23b 6b2c 923b
00000070: 8201 b63b eeeb ac3b d689 733a 707e b43b
00000080: 65f7 c23b 8fd9 dd3b 2ce6 aa3b e26b e13b
00000090: e5b6 8f3b 78d7 223b d218 103c 982d fb3b
000000a0: 9202 693b 0168 2d3b 2dee 473c baf5 b13b
000000b0: 59ce e83b 279a 813b 5634 6cba 7115 aa3b
000000c0: c6db 8b3b 08ef c53b ee23 983b 78ab 603b
000000d0: 1af3 953b d133 a53b 1fc2 853b edf1 793b
000000e0: cc16 533b e46b 863a 41ac d83b ad32 af3b
000000f0: be59 60ba 401f ce3b 63f3 ed3b 4b56 d93b
00000100: d690 eb3a 2d52 f33b 6ec2 c93b 2559 733b
00000110: 34c8 df3b 874c 9f3a b9dc 593b f2b8 a53b
00000120: 2e62 bd3b e6f3 b93b 0d06 c53b 7947 4f3b
00000130: 7dbd 893b 1353 9e3b 7407 373b 3d69 623a
00000140: c424 a33b ddca 9c3b a4af b83b 8905 853b
00000150: 11ae aa3b a16a 6e3b 471e c53b c425 b63b
00000160: 0d5f b73b 9f0c 633b 55c8 813b f4e5 853b
00000170: 20ab a63b b7a7 b03b 14a3 843b 127a 293a
00000180: 39b0 aa39 63c7 8e3a ef1d 4a3b 0c32 10bb
00000190: 8c01 533b b5ad 893b 8a56 9f3b e9fb a93b
000001a0: 264c 313b 34d1 863b 8a88 b03b 385a bb3b
000001b0: f383 bf3b f6dc 953b 158f 0b3b 47c0 bf3b
000001c0: cd68 813b 2616 b53b 3f1a 953b 65f0 cbbb
000001d0: 12fc 983b 5e4c a83b dcdb a03b 236d 733b
000001e0: 4f39 883b 5efa 533b 03ee 663b e389 663b
000001f0: 20a3 453b f483 2a3b 8dd1 98b9 a07c f2ba
00000200: 0012 cbba 074e 8f3a 558d 1aba 8402 83bb
00000210: a093 c1bb c50a babb d9fb 0bbb 7ca4 7dbb
00000220: 5db3 d2bb 09ca 08bc ecff f6bb c539 85bb
00000230: 6979 39bb 026e debb 31d1 05bc eb48 fdbb
00000240: b07e 8cbb 3594 afba 47b6 85bb be2a b4bb
00000250: a1fc 9fbb 5878 24bb 4acf 983b 2ced a83b
00000260: b334 b73b f31c bd3b 02ed af3b 474b 933b
00000270: 9a2a bd3b c426 c13b 8bde 473b 105e a73b
00000280: d581 9d3b 828a a93b 7ddb b63b 74ff d83b
00000290: 3e15 983b 0f85 653b e705 a83b a8a2 a43b
000002a0: bc98 293b 2ccf 6b3b 178d 2b3b 079d 0b3b
000002b0: 8ff0 373b 7c7a 5339 d885 e93a 6bf5 ecba
000002c0: 4ff2 9abb 5c77 babb ab33 c1bb af31 59bb
000002d0: 38a0 71bb d856 e1bb 03a1 0bbc 69a2 08bc
000002e0: 44eb b2bb 43d8 8bbb e092 28bc 2529 23bc
000002f0: c534 0dbc 0765 bebb f464 3abb c0f1 afbb
00000300: 8008 ddbb 4b39 cdbb 34d2 87bb 549e 2c39
00000310: 0bd3 bfba 72a3 20bb 7454 0ebb e596 baba
00000320: 0466 b739 3c83 373b dac0 483b 6d66 553b
00000330: fdf5 ff3b b498 243b 10d4 9b3b 8a51 363b
00000340: db79 cc3b 29f5 933b 5e15 7b3b 2b72 1e3c
00000350: fb67 003c 01cd db3b 7dcf bf3b 7a59 373b
00000360: d30e b73b b61a 2c3c 7d06 773b 7ea8 d23b
00000370: aa0f 913b d652 af3b 58fc cb3b 7f66 cb3b
00000380: 6b4d af3b a9a4 463b b43e a53b 6a47 493c
00000390: 642f 0e3b 1851 853b 1910 143b 6602 a33b
000003a0: bacc b13b fa73 9db7 75eb ac3b 8fb1 793b
000003b0: 67e8 cd3b 2a56 3f3b 886d d73b 21ab bc3b
000003c0: daa3 0c39 0644 183c 694b b53b c423 c53b
000003d0: 4442 aa3b 055b 183c 3e6c 933b 4cd4 e23b
000003e0: 5821 b93b 4f12 5e3b 05fb 783a 2d86 bf3a
000003f0: 4102 cd3a 41f4 a83a 2455 223a f04d e43a
0.004086102 0.0029252125 0.0054945135 0.005275889 0.0046347133 0.0046598986 0.0056613 0.0061791125
0.0060963687 0.00698549 0.006199209 0.005739779 0.0041331025 0.006464173 0.010344986 0.0046031955
0.0059127724 0.005029946 0.004839696 0.004165044 -0.003422455 0.004823527 0.006310199 0.0057980125
0.0044988324 0.0010112181 0.004954388 0.0044608614 0.005554379 0.0052771484 0.00092902535 0.0055082366
0.005949902 0.00677032 0.005215427 0.0068793157 0.0043858164 0.0024847668 0.00879498 0.0076653473
0.003555451 0.0026459696 0.012202782 0.005430904 0.0071046767 0.003955144 -0.0009010484 0.0051905443
0.0042681424 0.0060404576 0.004642955 0.003428189 0.004576099 0.0050415774 0.004081979 0.0038138584
0.0032209633 0.0010255543 0.006612331 0.005346617 -0.00085582945 0.0062903464 0.00726168 0.0066326014
0.0017972242 0.0074255676 0.006157211 0.0037131992 0.006829286 0.0012153544 0.0033243133 0.0050574476
0.005779526 0.005674827 0.006012684 0.0031628294 0.004203497 0.0048316806 0.0027928026 0.00086368975
0.004978748 0.0047849254 0.0056361724 0.0040594977 0.0052087386 0.0036379474 0.006015572 0.005558701
0.0055960477 0.0034644974 0.003960649 0.0040862504 0.0050863177 0.005391087 0.0040477607 0.0006465028
0.00032556223 0.0010893162 0.0030840596 -0.0022002487 0.0032196967 0.0042016157 0.004862611 0.0051875007
0.0027053445 0.0041142944 0.0053873705 0.005717542 0.005844587 0.0045734597 0.0021295 0.0058517787
0.003949261 0.005526322 0.004550248 -0.0062237256 0.004668721 0.005136057 0.004909022 0.0037143908
0.0041572223 0.0032345275 0.003523708 0.0035177402 0.0030157045 0.0026018592 -0.00029147827 -0.0018500276
-0.0015493035 0.0010933288 -0.0005895694 -0.0039981026 -0.005907491 -0.0056775534 -0.002135983 -0.0038702777
-0.006430073 -0.00834895 -0.0075378325 -0.0040657246 -0.0028301126 -0.0067880163 -0.008167551 -0.0077296398
-0.0042875633 -0.001339561 -0.004080567 -0.0054982593 -0.0048824106 -0.0025096145 0.0046633827 0.005155226
0.005590999 0.0057712733 0.0053688297 0.0044950577 0.005772901 0.005894514 0.0030497636 0.0051076487
0.004806737 0.005173982 0.0055803643 0.0066222493 0.004641204 0.0035021936 0.0051276567 0.005024273
0.002587839 0.0035981638 0.0026176625 0.0021303312 0.0028066968 0.00020168157 0.0017816378 -0.0018078511
-0.0047285925 -0.0056904983 -0.005896052 -0.0033141186 -0.003686918 -0.0068768077 -0.008522275 -0.008339503
-0.0054601748 -0.0042677238 -0.010288924 -0.00995854 -0.008618538 -0.0058103832 -0.002844152 -0.005369395
-0.006745398 -0.0062629334 -0.004144931 0.0001646218 -0.0014635039 -0.0024511483 -0.0021717818 -0.0014235644
0.00034980488 0.0028001806 0.0030632527 0.0032562271 0.0078113065 0.0025115432 0.0047555044 0.0027819597
0.0062401122 0.0045153094 0.0038312296 0.009670774 0.007837291 0.006707788 0.005853592 0.0027976916
0.005586484 0.010504415 0.0037693076 0.0064287772 0.004426916 0.005350451 0.00622515 0.006207287
0.005349805 0.0030310547 0.005042875 0.012285093 0.0021695727 0.004068505 0.0022592603 0.004974651
0.0054260166 -1.8769864e-05 0.005277092 0.0038100218 0.006283808 0.0029195645 0.0065743364 0.005757705
0.0001341248 0.009293562 0.005532671 0.0060162265 0.0051958878 0.0092990445 0.0044989875 0.0069222804
0.005649727 0.0033885424 0.0009497854 0.0014612131 0.001564093 0.0012890176 0.00061924965 0.0017418247

CCN.module.branch2.4.conv.bias f4 [20]
00000000: 9c97 c23b 42c8 fe3b c176 b03b 712d 143b
00000010: 34e1 4b3b 42f9 3a3c e5d0 b13b 4c4d 603c
00000020: 2e27 4f3b 364d 2a3c f472 0d3c e9c2 e23b
00000030: a0e3 273c e54e a33b f99d a63b 201d 393c
00000040: 8b0e a63b 6ee7 04b8 de19 9d3b 3a29 f23a
0.0059384834 0.0077753374 0.0053852503 0.0022610093 0.0031109573 0.011411967 0.0054265135 0.013690304
0.0031609046 0.010394385 0.008633364 0.0069202078 0.010247141 0.00498377 0.00508475 0.011298448
0.0050676516 -3.1686788e-05 0.0047943434 0.0018475421
