crowdcounting_SHHB_MCNN_ep_595_mae_36.6_mse_57.1.pth (torch, 544407 bytes, 25 tensors)

CCN.module.branch1.0.conv.weight f4 [16, 3, 9, 9]
0	0xbd1690be	-0.03675913
1	0xbb681a77	-0.0035416165
2	0xb997249a	-0.00028828235
3	0x3bcb1ccd	0.0061985017
4	0xbb4a35fe	-0.0030854936
5	0x3bfb389e	0.0076666614
6	0x3bcb4d3a	0.0062042745
7	0x3c76c582	0.015061738
8	0x3ae5691c	0.0017502639
9	0xbc014ac1	-0.007891358
10	0xbbfdbca9	-0.0077434373
11	0x3c1d0461	0.009583564
12	0x3b57626a	0.0032865056
13	0xbbe6cfe3	-0.007043825
14	0x3c5bbaee	0.013411267
15	0x3c9c3c0e	0.019071605
16	0xbb4aa7e9	-0.0030922836
17	0xbc291cad	-0.010321778
18	0xbaaee483	-0.0013343248
19	0xbb1b041c	-0.0023653572
20	0x3ba21af0	0.004947059
21	0x3b12a65a	0.0022376985
22	0x3b1515fb	0.0022748697
23	0x3c121301	0.008915664
24	0x3c63a68b	0.013894687
25	0x3c0c8af3	0.00857805
26	0xbc5e7720	-0.013578206
27	0x3b7a3d5d	0.0038183548
28	0x3ca68f5d	0.020332033
29	0x3c08e60a	0.008355627
30	0x3c18662e	0.009301705
31	0xba185623	-0.0005811175
32	0xbbae3d51	-0.005317368
33	0xbc402658	-0.011727892
34	0xbb6025f5	-0.0034202312
35	0x3bfefefd	0.007781862
36	0x3c18fa40	0.009337008
37	0x3ababff6	0.0014247883
38	0x3c2f4521	0.010697634
39	0xb997a793	-0.00028925817
40	0x3bb9764f	0.0056598554
41	0xbc112cca	-0.008860776
42	0xbc9dc155	-0.019257227
43	0x3bef5a62	0.0073044756
44	0x3a7d414c	0.0009660914
45	0x3c09207a	0.008369559
46	0x3c7c85d9	0.015412771
47	0x3b3e6901	0.0029054286
48	0xba482171	-0.00076343777
49	0xbcbed92d	-0.023296917
50	0xbb01ee3b	-0.0019825834
51	0xbc24e83f	-0.010065137
52	0x3be30594	0.006928155
53	0x3ae5a426	0.0017520234
54	0x3c36cf6f	0.011157854
55	0x3c1d2b10	0.009592786
56	0xbb1532e9	-0.002276594
57	0xbc585caf	-0.013205691
58	0xbaf81a43	-0.0018928725
59	0xbb11f669	-0.0022272116
60	0xbcc7bf6d	-0.024383271
61	0xbc6232e8	-0.013806082
62	0x3bc6d2a6	0.0060675917
63	0x3b862ed5	0.0040949383
64	0xbbcf7ee2	-0.0063322643
65	0x3ba83e09	0.0051343483
66	0xbba5444d	-0.0050435425
67	0xbc29ceb3	-0.010364222
68	0xbbe60a1d	-0.0070202486
69	0xbc2ff7a5	-0.010740195
70	0x3b98a20e	0.0046579903
71	0x3b1cec59	0.0023944585
72	0x38a300f8	7.772626e-05
73	0xbb351518	-0.002763098
74	0x3c694c74	0.014239419
75	0x3c91c9ce	0.017796423
76	0x3963511d	0.00021678624
77	0xbc02a84c	-0.007974695
78	0xbc27b3c1	-0.010235728
79	0xbc1da671	-0.009622202
80	0x3bebab06	0.0071920184
81	0xba2f8491	-0.0006695474
82	0xbc512baf	-0.012766763
83	0xbaaef096	-0.0013346847
84	0xbaa149a5	-0.0012305273
85	0xbb29ec2a	-0.0025928118
86	0x3cbe0dd9	0.023199962
87	0xbb096278	-0.0020963233
88	0x3c400562	0.011720033
89	0xbb15a5d7	-0.0022834444
90	0xbbd3429f	-0.006447151
91	0x3c332434	0.0109339245
92	0xbc2c4453	-0.010514337
93	0xbc146769	-0.009057858
94	0xbb932358	-0.0044902973
95	0x3c0b8c49	0.008517333
96	0x3c6e0d93	0.0145296035
97	0x3c812d0b	0.015768548
98	0xbc06bc84	-0.008223657
99	0xbbc17caf	-0.005904756
100	0xbc001650	-0.00781782
101	0xbc28025a	-0.010254467
102	0x3bddc726	0.006768125
103	0xbc75325f	-0.014965623
104	0x3bc57281	0.006025613
105	0x3c898391	0.016786369
106	0x3bee2c9b	0.007268501
107	0xbbdd245a	-0.006748718
108	0xb98e84e1	-0.00027183353
109	0xbca12040	-0.019668698
110	0xba83cefc	-0.0010056193
111	0x3bb7ae91	0.0056055267
112	0xbc648dac	-0.013949793
113	0xbba977a3	-0.0051717325
114	0x3c0e2180	0.008674979
115	0x3caf3a62	0.021390144
116	0x3c1a589c	0.00942054
117	0x3c0c8cd6	0.0085785
118	0xbc75b44e	-0.014996601
119	0xbc9ae626	-0.018908571
120	0xbc0c59d6	-0.00856634
121	0xbb5a9722	-0.0033354242
122	0xbc176110	-0.00923945
123	0x3b6ec1ec	0.0036431504
124	0x3c12b26e	0.008953674
125	0x3b83479e	0.00400634
126	0xba95980a	-0.0011413109
127	0x3bc8b80a	0.006125455
128	0x3a7dda52	0.00096837163
129	0x3c345545	0.011006658
130	0xbb40a850	-0.0029397197
131	0x3b2f6517	0.0026763135
132	0xbbc18bcd	-0.005906558
133	0x3b33617c	0.0027371338
134	0xbb389042	-0.0028162156
135	0xbb3753c2	-0.0027973508
136	0x3c92d4ac	0.017923675
137	0xba322aab	-0.0006796519
138	0x3bc84260	0.006111428
139	0xbc98a37a	-0.01863264
140	0xbb94492c	-0.0045253243
141	0xbcb34e9c	-0.02188807
142	0xba13760b	-0.0005625195
143	0xbbcd0d59	-0.0062576947
144	0x3c812237	0.015763385
145	0xbc029116	-0.0079691615
146	0x3b5bb47e	0.003352433
147	0x3b3d3811	0.002887253
148	0x3ad25b33	0.0016048908
149	0xbad698f1	-0.0016372484
150	0xbc6ff753	-0.014646369
151	0xbc75cff6	-0.015003195
152	0x3c8f6516	0.017504256
153	0x3c96bcf6	0.01840065
154	0xbc150172	-0.009094583
155	0xbb1f569e	-0.0024313102
156	0x3b2027b5	0.002443773
157	0x3c8f3c4c	0.017484806
158	0xbc6550e8	-0.01399634
159	0xbc80c292	-0.015717778
160	0xbbe38370	-0.006943159
161	0xbc0501b4	-0.008118082
162	0xbbab8e02	-0.0052354345
163	0xbbbac28b	-0.005699461
164	0xbc414c4a	-0.011797974
165	0xbb3e4515	-0.0029032875
166	0x3c0ce869	0.008600333
167	0x3af76a65	0.0018876313
168	0x3c362d21	0.011119158
169	0x3c99b452	0.018762741
170	0xbba47c1c	-0.005019678
171	0xbbcf57eb	-0.0063276193
172	0xbcff044d	-0.03112998
173	0xbbf744e8	-0.007546056
174	0xbc1bb2dd	-0.009503094
175	0xbc2fd01b	-0.010730769
176	0x3c8f8238	0.017518148
177	0x3b8cc823	0.004296319
178	0x3cbecace	0.023290064
179	0x3c48ce4d	0.012256217
180	0xbcc67371	-0.024224969
181	0xbcc544ba	-0.024080623
182	0xbc63f1ca	-0.0139126275
183	0xbb9c4732	-0.0047692293
184	0xbc75c4d9	-0.015000545
185	0x3c1c583f	0.009542524
186	0x3c6249ef	0.013811572
187	0x3c3012b1	0.010746644
188	0x3c8f074a	0.01745953
189	0xbc186e3e	-0.009303628
190	0x3b2594a1	0.0025265592
191	0xbbde7320	-0.0067886263
192	0xbc820ce7	-0.015875293
193	0xbc88004f	-0.01660171
194	0xb90bc056	-0.00013327724
195	0x3c0eb496	0.008710047
196	0x3c1364a8	0.008996166
197	0x3c153742	0.009107413
198	0xbb2f53e8	-0.0026752893
199	0xbac69448	-0.0015150392
200	0x3b1748fc	0.0023084274
201	0xbc12e8fe	-0.0089666825
202	0xbb1cee76	-0.0023945845
203	0xbb4d1598	-0.0031293388
204	0xba1baeef	-0.0005938848
205	0x3cab0611	0.020876916
206	0x3b301d13	0.0026872798
207	0x3b6b74c6	0.0035927757
208	0x3bfa639e	0.00764127
209	0x3c3a8559	0.011384332
210	0xbc560338	-0.013062291
211	0xbc89a9ca	-0.016804595
212	0xbca3032d	-0.019898975
213	0xbc4f39e7	-0.012648082
214	0x3bcc25b9	0.006230083
215	0x3c5a5a4e	0.013327194
216	0x3cdeb957	0.027187986
217	0x3c378ea5	0.011203443
218	0x3c98fcfc	0.01867532
219	0x3c14f085	0.009090547
220	0x3bb48750	0.0055092946
221	0xbc7bbaf2	-0.015364395
222	0x3a0aab39	0.00052897964
223	0x3ac1f9a7	0.0014799134
224	0x3c452f8f	0.012035265
225	0x3be77ced	0.007064453
226	0x3af4c827	0.0018675373
227	0xbab36d12	-0.0013689122
228	0x3c677dd0	0.014129117
229	0x3b3f5b97	0.002919888
230	0xbc265d23	-0.010154041
231	0xbca31ffe	-0.019912716
232	0x3bdfd91d	0.006831302
233	0x3c66ac0f	0.014079108
234	0xbc96a794	-0.018390454
235	0x3bb19d57	0.0054203677
236	0x3c230174	0.009949077
237	0x3c1e406d	0.009658915
238	0x3b433205	0.0029784453
239	0xbb93e494	-0.0045133326
240	0xba0582f6	-0.0005093062
241	0xbc6d5898	-0.014486454
242	0x3b592425	0.0033133116
243	0x3c8f5664	0.017497249
244	0xba0b218d	-0.00053074287
245	0x3b7a048d	0.0038149685
246	0x3c7ed2e7	0.015553213
247	0xbb5e7d33	-0.0033949136
248	0xb58fafc2	-1.0705483e-06
249	0x3c7603f8	0.015015595
250	0xbc2d59dc	-0.010580506
251	0x3b318e1a	0.0027092756
252	0x3c2a9d55	0.010413487
253	0x3c90a0a5	0.017654726
254	0x3b3c4816	0.002872949
255	0xbc09ed71	-0.008418427

CCN.module.branch1.0.conv.bias f4 [16]
0	0xbbf9cde3	-0.0076234206
1	0x3c8dffed	0.017333949
2	0x3c7f442b	0.015580217
3	0xb98702a4	-0.00025751174
4	0xbbc77368	-0.0060867555
5	0xbbe7581e	-0.007060065
6	0xbaf77739	-0.0018880136
7	0x3a8e98ec	0.0010879315
8	0xbbc22c97	-0.0059257257
9	0x3ba635d1	0.0050723334
10	0x3b9a7894	0.004714081
11	0x3c3e7598	0.011624716
12	0xbc0cad27	-0.008586205
13	0xbb681082	-0.003541023
14	0xbb89f34e	-0.0042099124
15	0xbbd69884	-0.006548943

CCN.module.branch1.2.conv.weight f4 [32, 16, 7, 7]
0	0x3aed6b44	0.0018113633
1	0x3b0825c8	0.0020774473
2	0x398dbec5	0.0002703575
3	0x3b0d35b1	0.0021546895
4	0x3b0d7863	0.0021586649
5	0x3b656b51	0.0035006593
6	0x3b688fc6	0.0035486086
7	0xbb2f95f3	-0.0026792258
8	0xbb8de00e	-0.004329688
9	0x3a8fc547	0.0010968827
10	0xbb63c2c9	-0.0034753552
11	0x3ab49f0e	0.0013780312
12	0x3b5cf534	0.0033715488
13	0x3bc8f181	0.006132305
14	0x3b358992	0.0027700406
15	0xba74fa89	-0.0009345194
16	0xbb165f72	-0.0022945073
17	0x3b3638fe	0.0027804966
18	0x3adb2b12	0.001672121
19	0x3ba73f5f	0.00510399
20	0x3b4455f6	0.0029958463
21	0xbb187120	-0.0023260787
22	0xba5c8c44	-0.0008413235
23	0x3a1c7581	0.0005968437
24	0x38e9ecbf	0.00011154403
25	0x3af1c3c5	0.0018445185
26	0x39dc9ea3	0.00042079863
27	0x3bc83c8f	0.006110735
28	0x3ba50107	0.005035523
29	0x3a70aa62	0.00091806625
30	0xbc048502	-0.008088352
31	0x3c14020a	0.009033689
32	0xbb264ba6	-0.002537468
33	0x3b463606	0.0030244603
34	0x3b84b444	0.0040498096
35	0x39ca2617	0.00038556822
36	0x3be93bd2	0.007117727
37	0x3a4914b2	0.00076706253
38	0xb6109334	-2.1543356e-06
39	0x3b1cb748	0.0023912955
40	0x3b8fd5cb	0.0043895
41	0xb96a27d9	-0.00022330823
42	0x3bca0759	0.0061654267
43	0x3bed8bf2	0.007249349
44	0x3b4df00a	0.0031423592
45	0x3a329a11	0.0006813119
46	0x3b6f0da9	0.0036476648
47	0x3b463820	0.0030245855
48	0x3bc094e8	0.005877126
49	0xba1e7da6	-0.0006045945
50	0xbb1a4939	-0.002354218
51	0xba8eeab3	-0.0010903686
52	0xba9cebad	-0.0011972092
53	0x3b2ab963	0.002605044
54	0xbb637ee7	-0.003471309
55	0xbac4ea6f	-0.001502348
56	0x3b605d55	0.0034235318
57	0xbbdbdbb2	-0.0067095393
58	0x3a60c1e7	0.00085738156
59	0x3b56a36c	0.0032751216
60	0x3b744104	0.0037270198
61	0x3b1326c8	0.0022453535
62	0xbbfd562d	-0.00773122
63	0x3b79dc7b	0.0038125801
64	0xbb3a0fb2	-0.0028390703
65	0x3ad8a3da	0.0016528324
66	0x3a0e1432	0.00054198795
67	0xbaf7e27d	-0.0018912103
68	0xbb3c2279	-0.002870707
69	0x3b0b66ef	0.002127107
70	0x3aeb44e5	0.0017949609
71	0x3b7401e2	0.0037232568
72	0x3bd0320d	0.006353623
73	0x3a052c81	0.0005080179
74	0x3ae325b6	0.0017329964
75	0xb9f86d47	-0.00047383664
76	0x3b8debbb	0.00433108
77	0x3bacae47	0.005269799
78	0x3b839fb9	0.004016843
79	0xbbee1b6c	-0.0072664525
80	0x3b870256	0.0041201515
81	0x3bb91373	0.0056480705
82	0x3bc1b185	0.0059110546
83	0x3a3f4fbe	0.0007297954
84	0x3c028c25	0.007967983
85	0xbc397095	-0.011318346
86	0x3b53ea4e	0.0032335701
87	0x3b9c57a1	0.0047711884
88	0x3be67199	0.007032585
89	0x3c0abd23	0.008467945
90	0x3adb6473	0.001673831
91	0x3c4077a4	0.011747275
92	0x3bd1d00a	0.006402974
93	0x3bf301f7	0.0074160057
94	0x3c39f31d	0.011349467
95	0x3c02b0b9	0.007976704
96	0x3be71caa	0.0070529776
97	0x3bce03cf	0.006287075
98	0xb998789f	-0.0002908157
99	0x3bab8357	0.005234163
100	0x3b97f4f5	0.0046373555
101	0x3acd8632	0.0015680252
102	0xbab05df9	-0.001345574
103	0xb89f4896	-7.595231e-05
104	0x3b25628a	0.0025235736
105	0x3b8b5ea0	0.0042532235
106	0x3b2c5d3c	0.002630069
107	0xbad17972	-0.0015981628
108	0x3ba38c42	0.0049910853
109	0x3be0848f	0.0068517397
110	0xba0ade1d	-0.00052973797
111	0x3b68f8d0	0.0035548694
112	0x3b8212a7	0.0039695087
113	0xbb4f0f33	-0.0031594753
114	0x392f0c9d	0.00016694
115	0x3a9b122c	0.0011830977
116	0x3bbca62a	0.005757113
117	0x3bd7016f	0.00656145
118	0x3b0f5c88	0.0021875221
119	0xbbcb58a7	-0.0062056365
120	0x3bc7e330	0.006100081
121	0x3c26c898	0.010179661
122	0x3b8fbdc6	0.0043866364
123	0x3a52a71f	0.0008035767
124	0x3b202eb4	0.00244419
125	0x3b800029	0.003906269
126	0x3bfab1fb	0.0076506115
127	0x3c533dd9	0.012893164
128	0x3c07ec0e	0.008296026
129	0x3bb40b52	0.0054945135
130	0x3b498f9b	0.0030755762
131	0x3b21e3d1	0.002470244
132	0xbb4ab11c	-0.003092832
133	0x3bbe8389	0.00581402
134	0x3c43c03a	0.011947686
135	0x3baf4e56	0.0053499145
136	0x3bb5d4de	0.0055490574
137	0x3bd564f4	0.0065122787
138	0x3bb493f2	0.0055108005
139	0x3bc19af4	0.0059083644
140	0x3c43d1c9	0.011951872
141	0x3c80cb82	0.01572204
142	0x3c601b3d	0.013678369
143	0x3c661ace	0.014044477
144	0x3c122405	0.008919721
145	0x3bd866f9	0.006604072
146	0x3a2a214c	0.0006489947
147	0x3b41a183	0.0029545731
148	0x3bc3ced0	0.0059755817
149	0x3b81a359	0.00395624
150	0x3acff508	0.0015865872
151	0x3a7c4092	0.0009622659
152	0x3b718fbc	0.0036859354
153	0x3bdbe3f0	0.006710522
154	0x3b37efd0	0.0028066523
155	0x3a6c48c0	0.0009013526
156	0x3b8e05ab	0.004334172
157	0x3af27ee6	0.0018500953
158	0xbb1954b9	-0.0023396446
159	0x3b537257	0.0032264197
160	0x3bf0936a	0.007341792
161	0x3ac516eb	0.0015036737
162	0x3b7d09d0	0.0038610585
163	0x3baecfef	0.005334846
164	0x3b3bb52a	0.0028641918
165	0xbae5c481	-0.0017529876
166	0x391fb771	0.00015231759
167	0x3acc6068	0.0015592696
168	0x3b086d1b	0.0020816985
169	0x3aba8b22	0.0014232139
170	0x3ba18a08	0.0049297847
171	0x3bc36ed0	0.0059641376
172	0x3bd7e0a0	0.0065880567
173	0x3b92c77b	0.0044793463
174	0x3b998582	0.004685105
175	0x3bc143ce	0.0058979755
176	0x3b59e962	0.003325068
177	0x3b95e78b	0.004574721
178	0x3b0c8084	0.0021438906
179	0x3ba5febd	0.0050657676
180	0x3c02da26	0.007986581
181	0x3b7d0944	0.003861026
182	0x3bd90216	0.006622563
183	0x3b8caa7c	0.0042927843
184	0x3bf42626	0.0074508367
185	0x3b92e523	0.0044828816
186	0x3bc1ddfe	0.005916356
187	0x3bd0e0e9	0.0063744676
188	0x3b9c8187	0.004776183
189	0x3c16704e	0.009182049
190	0x3bef3d32	0.007300996
191	0x3be9ee92	0.0071390355
192	0x3bdbc07a	0.0067062946
193	0x3bd4a0b6	0.006488885
194	0x3c267614	0.010159988
195	0x3c0ef783	0.008726004
196	0x3b8af1fd	0.004240273
197	0x3bb673fd	0.005568026
198	0x3b75d8f4	0.0037513347
199	0x3bcc869e	0.0062416336
200	0x3bc4c6fa	0.006005165
201	0x3b9d7a82	0.004805864
202	0x3b912224	0.0044291187
203	0x3c211b31	0.009833143
204	0x3bf32c1a	0.007421029
205	0x3b24252e	0.0025046575
206	0x3abcf1a0	0.0014415272
207	0x3ba41bf1	0.0050082137
208	0x3be356e9	0.0069378507
209	0x3b3b6d90	0.002859924
210	0x3b99780a	0.004683499
211	0x3c422ccf	0.0118515035
212	0x3be34f6b	0.0069369576
213	0x3bbf4d72	0.0058380896
214	0xba37b4ea	-0.00070078543
215	0xbbe5d690	-0.0070141032
216	0x3b860c8c	0.004090851
217	0x3c34cdab	0.011035363
218	0x3bf4c81f	0.0074701454
219	0x3c018ce3	0.007907125
220	0x3c056710	0.008142248
221	0x3bfd43b2	0.007729017
222	0x3b802fdf	0.0039119567
223	0xba04cacf	-0.0005065621
224	0x3c0d83e8	0.008637406
225	0x3bce013f	0.0062867696
226	0x3ba93c85	0.005164685
227	0x3bbeecc4	0.0058265645
228	0x3bcdf8df	0.0062857713
229	0xbb17dcb0	-0.0023172311
230	0xb8baf7f1	-8.915354e-05
231	0x3c053a8e	0.008131636
232	0x3bd326ef	0.00644385
233	0x3be3962e	0.006945393
234	0x3bc41184	0.0059835333
235	0x3c1826dc	0.009286609
236	0x3b9d959b	0.004809094
237	0x3b44a46f	0.0030005237
238	0x3b731d32	0.003709626
239	0x3ba3be8c	0.00499708
240	0x3bb6884f	0.0055704485
241	0x39f7ea28	0.0004728597
242	0x3bd9355f	0.006628677
243	0x3c0cc2c9	0.008591362
244	0x3b9b7713	0.0047444194
245	0x3bf1c87c	0.007378636
246	0x3ba29cb6	0.004962529
247	0x3ba9c650	0.0051811114
248	0x3ae26683	0.0017272983
249	0xbb2a109f	-0.0025949848
250	0xba7f11ea	-0.00097301474
251	0x3ba227b4	0.0049485806
252	0xbb99e822	-0.004696862
253	0x3bbbd994	0.0057327244
254	0x3b6af4a3	0.0035851381
255	0x3b2e6a02	0.0026613479

CCN.module.branch1.2.conv.bias f4 [32]
0	0xbb8cbed1	-0.004295208
1	0xbc227085	-0.009914522
2	0xbc0294a3	-0.007970008
3	0x3c79da22	0.015249761
4	0xbbf69a21	-0.007525698
5	0x3c9428a5	0.018085787
6	0x3c467c40	0.012114584
7	0x3c46bf1c	0.012130525
8	0x3cb17aae	0.021664944
9	0xbc2d15d6	-0.010564288
10	0x3c9df9ef	0.019284217
11	0xbc00b3bf	-0.007855355
12	0x3cb881f1	0.022522898
13	0x3c3d17c7	0.0115413135
14	0xbbf5a844	-0.0074968655
15	0xbc2270cd	-0.009914589
16	0xbb1e3788	-0.0024141986
17	0x3c6ba417	0.014382384
18	0xbc1cab39	-0.009562307
19	0x3c3c7ffd	0.011505124
20	0xbc573a05	-0.0131363915
21	0xbbfbe3ad	-0.007687053
22	0x3c63a23b	0.013893659
23	0xbbf8d73a	-0.0075940164
24	0xbb5f0510	-0.0034030117
25	0x3bfd598f	0.0077316235
26	0x3c2d2f49	0.010570356
27	0xbc23bc4c	-0.009993624
28	0xbbada7c7	-0.0052995416
29	0xbc13a238	-0.009010844
30	0xbbf92e31	-0.0076043834
31	0xbbbd58bc	-0.0057784

CCN.module.branch1.4.conv.weight f4 [16, 32, 7, 7]
0	0x38241d6f	3.912806e-05
1	0x3bd21b48	0.0064119436
2	0x3c77d4ec	0.015126448
3	0xbbaf6e1c	-0.005353702
4	0xbaec1bbe	-0.0018013639
5	0xbb42a38d	-0.0029699535
6	0x3c0cece1	0.008601398
7	0x3c8e348b	0.017359039
8	0x3ba81ea4	0.005130606
9	0x3bc00ee0	0.0058611482
10	0x3b4e4a7f	0.0031477509
11	0xbafd26dc	-0.0019313949
12	0xb91682f7	-0.00014353903
13	0x3b777370	0.0037758015
14	0x3b604065	0.003421807
15	0x3bab8d5f	0.0052353586
16	0x37ac79e0	2.056075e-05
17	0x3c251094	0.010074753
18	0x3c428ac2	0.011873903
19	0x3ca11ccb	0.01966705
20	0xbb115aae	-0.0022179293
21	0xbbc2e33c	-0.0059474986
22	0xbb8c240b	-0.0042767576
23	0x3bb9a69a	0.0056656124
24	0x390061b8	0.00012243434
25	0x3c53eafa	0.012934441
26	0x3b9f7f98	0.0048675053
27	0xbb1d5d9e	-0.00240121
28	0x3c014d8b	0.007892023
29	0x3baa6448	0.0051999427
30	0x3b945bd2	0.0045275474
31	0x3c2fd618	0.010732196
32	0xbb291bd4	-0.002580394
33	0x3be4559e	0.006968214
34	0xbae5f131	-0.0017543194
35	0x3c494924	0.0122855045
36	0xb98685dd	-0.00025658208
37	0x3bf6da93	0.0075333803
38	0x3b4975f6	0.0030740476
39	0x3ac57d8a	0.0015067321
40	0x3c2011af	0.009769841
41	0x3b42526f	0.0029651185
42	0xb99d9396	-0.00030055334
43	0x3b445dc8	0.0029963125
44	0x3bff9855	0.007800142
45	0x3b8f2ab2	0.0043691033
46	0x3c4eb4c1	0.012616337
47	0x3b986cd8	0.004651647
48	0x3c229fbb	0.009925778
49	0x3abf7d9b	0.0014609577
50	0x3c621ca3	0.013800773
51	0xba1eeb8e	-0.0006062322
52	0xbc103b9c	-0.0088032745
53	0x39a05f1c	0.0003058844
54	0x3b19e73f	0.002348378
55	0x3bca8232	0.0061800713
56	0x3bf7fd89	0.0075680655
57	0x3bbeeaa0	0.0058263093
58	0x3bbae21e	0.005703225
59	0x3b448dd7	0.002999177
60	0x3b96f314	0.004606614
61	0x3c457539	0.012051874
62	0x3bf3fb33	0.0074457168
63	0x3ba08217	0.0048983204
64	0x3bc93497	0.0061403024
65	0x3c8f7316	0.017510932
66	0x3bf3de4e	0.0074422723
67	0x3b68da30	0.003553044
68	0x3bf50b61	0.007478163
69	0x3c64bf22	0.013961585
70	0x3bed24b8	0.007237043
71	0x3c080ea1	0.008304269
72	0x3c172f9e	0.009227661
73	0x3bf8609e	0.007579877
74	0xbada233d	-0.0016642582
75	0x3bf4802c	0.0074615683
76	0x3a22b6b9	0.00062070374
77	0x3ae722c7	0.0017634266
78	0x3c26efb3	0.010188985
79	0x3c246105	0.010032897
80	0x3c23e949	0.01000435
81	0x37c5fbb1	2.3601433e-05
82	0xb9df0c30	-0.00042542955
83	0x3bc9996e	0.0061523234
84	0x3c41c890	0.011827603
85	0x3bbe03f5	0.0057988116
86	0x3c2f791d	0.010710028
87	0x3bfcdb81	0.0077165966
88	0x3c164745	0.009172265
89	0xbbb58273	-0.0055392324
90	0x3c198e09	0.009372243
91	0x3ba42d45	0.0050102794
92	0xbb9419f5	-0.004519696
93	0x3c02c2c4	0.007981006
94	0xba123e7d	-0.00055787695
95	0x3bb14cf5	0.0054107853
96	0x3c621a10	0.013800159
97	0x3c331962	0.010931345
98	0x3b730686	0.0037082746
99	0xba0654ca	-0.0005124329
100	0x3bebec2f	0.007199786
101	0x3beed4b0	0.007288538
102	0x3bff8957	0.0077983546
103	0xbb111cd4	-0.0022142427
104	0x3b92fc3a	0.004485634
105	0xbbd1c205	-0.0064013028
106	0xbad3c3ea	-0.0016156409
107	0x3a93c584	0.0011274074
108	0x392905f5	0.00016119315
109	0x3b2f270e	0.002672616
110	0x3b9e1c3e	0.004825144
111	0x3bf27173	0.007398778
112	0x3c2d13cb	0.010563801
113	0x3aae9907	0.0013320752
114	0xb968627e	-0.00022161935
115	0x3c294aa8	0.010332741
116	0x3c9e390c	0.019314311
117	0x3743fff6	1.1682501e-05
118	0x3c123434	0.008923579
119	0x3c23365c	0.009961691
120	0x3a914065	0.0011081813
121	0x3ba9edaa	0.0051858025
122	0x3b8179b5	0.003951276
123	0x3b8cab8d	0.0042929114
124	0x3c75be3b	0.014998968
125	0x3c6bcd8a	0.014392266
126	0x3ad509e5	0.0016253559
127	0x3c377ec8	0.011199661
128	0xbaa62b0f	-0.0012677627
129	0x3c109ae9	0.008825996
130	0x3c0ed039	0.008716636
131	0xbb674383	-0.0035288043
132	0x3c18d353	0.009327727
133	0x3c621231	0.0137982825
134	0x3be2c744	0.006920727
135	0x3b52e2d9	0.0032178669
136	0x3bafba09	0.0053627533
137	0x3bc160f3	0.00590145
138	0x3afebb7b	0.0019434536
139	0x3bc33459	0.005957168
140	0x3c88d4d9	0.016703056
141	0x3c21c0e4	0.009872649
142	0x3b956555	0.004559199
143	0x3c1ab143	0.009441677
144	0x3b8bf77c	0.004271446
145	0x3c83b09f	0.01607543
146	0x3be55e6d	0.006999782
147	0xbc203b98	-0.009779833
148	0xbc05c479	-0.0081645185
149	0xbbe49c6c	-0.0069766548
150	0xbbc38973	-0.005967313
151	0xbbb30f47	-0.0054644677
152	0xbbc5bb3a	-0.006034282
153	0xbbff3811	-0.007788666
154	0xbc4a2ba9	-0.012339511
155	0xbc287567	-0.010281897
156	0xbc14b0d7	-0.009075365
157	0xbc04e299	-0.008110666
158	0xbc01ee6a	-0.0079303775
159	0xbc0e310e	-0.008678688
160	0xbc2fe6e7	-0.010736204
161	0xbc5683fd	-0.013092992
162	0xbc2be771	-0.010492192
163	0xbc1db97d	-0.009626743
164	0xbc1c1fbf	-0.009529053
165	0xbc1c840a	-0.009552965
166	0xbc2dddab	-0.010611932
167	0xbc5794ea	-0.0131580625
168	0xbc4f79fb	-0.01266336
169	0xbc2033db	-0.009777988
170	0xbc13d3d5	-0.009022673
171	0xbc1b63ad	-0.009484214
172	0xbc2a0c12	-0.010378854
173	0xbc419993	-0.0118164
174	0xbc6f0130	-0.0145876855
175	0xbc4582ec	-0.01205514
176	0xbc0179ac	-0.007902544
177	0xbbfa4f2b	-0.007638832
178	0xbc0e643f	-0.008690893
179	0xbc253ff2	-0.0100860465
180	0xbc3e478f	-0.011613741
181	0xbc68c67a	-0.014207477
182	0xbc389c01	-0.011267663
183	0xbbf50c62	-0.007478283
184	0xbbf0029b	-0.0073245293
185	0xbc0b629e	-0.008507399
186	0xbc223a12	-0.00990154
187	0xbc36307d	-0.011119959
188	0xbc57c870	-0.013170347
189	0xbc56ca4a	-0.013109753
190	0xbc1c8a6a	-0.009554485
191	0xbc0f1b9c	-0.00873461
192	0xbc1c7f27	-0.0095518
193	0xbc27fcc5	-0.010253136
194	0xbc39d1ff	-0.011341571
195	0xbc4c32d0	-0.0124632865
196	0xba98abf3	-0.0011647925
197	0x3b7ce8ca	0.0038590902
198	0x3b105dcd	0.0022028566
199	0x3c017b76	0.007902971
200	0x3af438cd	0.0018632651
201	0x3c2bec77	0.010493389
202	0x3b8f90c1	0.0043812697
203	0x3baa77c3	0.005202265
204	0x3bd86f0f	0.006605036
205	0x3c3aa726	0.01139239
206	0xbbbd893e	-0.005784183
207	0x3c73dbb5	0.014883925
208	0xbb9a2340	-0.004703909
209	0x3c8b50ab	0.017006239
210	0x3c4575a0	0.01205197
211	0x3c534530	0.012894914
212	0x3c87c5ed	0.01657387
213	0x3c1f3352	0.009716826
214	0x3bf2cb55	0.007409493
215	0xbab4281b	-0.0013744863
216	0x3c16bbfc	0.009200092
217	0x3b212854	0.0024590688
218	0xb9ad1179	-0.0003301015
219	0xbab5a382	-0.0013857933
220	0x3b7f52e1	0.0038959312
221	0x3c3f12a8	0.011662163
222	0x3cb77b7b	0.022397747
223	0x3c302f6d	0.010753495
224	0x3c4f4b25	0.012652193
225	0x3c98d3f8	0.018655762
226	0x3c1b995a	0.009497011
227	0x3ae23f33	0.0017261266
228	0x3c091dcd	0.0083689215
229	0x3c214a73	0.00984441
230	0x3af26420	0.0018492974
231	0x3a2630ba	0.0006339658
232	0xba6b6b85	-0.000898056
233	0x3be13523	0.0068727895
234	0x3bfefcdc	0.007781608
235	0x3c2f259c	0.010690119
236	0x3c91da13	0.017804181
237	0x3bdfc82a	0.0068292813
238	0x3b4ca5e8	0.0031226818
239	0x3befaf21	0.007314578
240	0x3ba74239	0.00510433
241	0x3bf1f5aa	0.0073840218
242	0xbc26a658	-0.010171495
243	0x3c191c01	0.009345056
244	0x3c29b042	0.010356965
245	0xbc27a64c	-0.010232519
246	0xbc200510	-0.009766832
247	0xbc0b7775	-0.0085123675
248	0xbbefb71f	-0.007315531
249	0xbbf08e5e	-0.0073411902
250	0xbbd9ee76	-0.006650741
251	0xbc11f5b7	-0.008908681
252	0xbc403eb5	-0.0117337005
253	0xbc3f595c	-0.01167902
254	0xbc2e7350	-0.01064761
255	0xbc168fbf	-0.009189545

CCN.module.branch1.4.conv.bias f4 [16]
0	0xbbf51430	-0.007479213
1	0xbc0f2bd7	-0.00873848
2	0xbc0107cf	-0.007875397
3	0x3c74002f	0.014892622
4	0xbc2e6dec	-0.010646325
5	0xbc0043c3	-0.007828656
6	0xbc2b5c6f	-0.01045905
7	0x3c8f3a07	0.017483724
8	0x3c758a54	0.014986593
9	0x3c8083cb	0.015687844
10	0xbc03538c	-0.008015525
11	0x3c7964ed	0.0152218165
12	0xbc2b1d97	-0.0104440665
13	0xbc2c6bce	-0.0105237495
14	0x3c6a03af	0.014283105
15	0x3c936070	0.01799032

CCN.module.branch1.5.conv.weight f4 [8, 16, 7, 7]
0	0x3b55f1d5	0.0032645364
1	0xbb5d6046	-0.0033779307
2	0x3c8ce99b	0.017201236
3	0xbc77afcd	-0.015117598
4	0x3c4c07ae	0.012453003
5	0x3b5d6d10	0.003378693
6	0xbc437a1f	-0.011930971
7	0x3c303033	0.010753679
8	0x3c82b2e8	0.01595445
9	0x3b4cd5c4	0.0031255344
10	0xbc30bfe2	-0.010787936
11	0x3bac0070	0.0052490756
12	0x3bbe1d5b	0.0058018393
13	0x3c81045a	0.015749145
14	0x3bfc299e	0.007695391
15	0x3b587479	0.0033028407
16	0x3ca59b53	0.020215666
17	0x3c946046	0.018112313
18	0x3c89b0db	0.016807964
19	0x3bc3b1b7	0.005972113
20	0x3bc5e51a	0.006039274
21	0x3c45c3de	0.012070624
22	0x3cd3c3e7	0.02585025
23	0x3c81a09b	0.015823653
24	0x3c75eade	0.01500961
25	0x3c8dee2b	0.017325481
26	0x3c322a9f	0.0108744195
27	0x3c4dc5c1	0.012559355
28	0xba672b0d	-0.0008818366
29	0x3c9af799	0.018916892
30	0x3b2a4c68	0.0025985483
31	0x3b9cc5d4	0.004784325
32	0x39d217e8	0.00040072133
33	0xbbb04235	-0.0053789862
34	0x3c897c23	0.016782826
35	0x3c8c7de6	0.017149877
36	0x3cf86f6d	0.03032657
37	0xbc1a4d27	-0.009417809
38	0x3c101125	0.00879315
39	0x3cdf2399	0.027238654
40	0xbada01b9	-0.0016632593
41	0x3c5fba79	0.013655298
42	0x3c8db92a	0.017300207
43	0x3c190ae4	0.009340975
44	0x3bf7c8f1	0.007561796
45	0x3b8eaed9	0.0043543396
46	0xbbb3ca96	-0.0054867966
47	0x3c476d69	0.0121720815
48	0x3c592726	0.013253963
49	0xbb9e2819	-0.0048265574
50	0xbbd620f1	-0.0065346886
51	0x3ba23148	0.0049497224
52	0x3a05bcd4	0.0005101685
53	0x3c0ad294	0.008473057
54	0x3bb55345	0.005533608
55	0x3ba417a7	0.0050077024
56	0x3c196dfe	0.009364603
57	0xbb3b3cd4	-0.0028570192
58	0xbc340034	-0.010986377
59	0x3b7bceb9	0.0038422777
60	0x3b85dbdb	0.0040850467
61	0xb9f3667c	-0.0004642493
62	0x3b2e5b29	0.0026604629
63	0x3cb061e5	0.021531055
64	0x3c5a9183	0.013340357
65	0x3bd0dedd	0.0063742236
66	0x3ca1c820	0.019748747
67	0x3b9a802e	0.0047149872
68	0x3c840642	0.016116265
69	0x3b07cced	0.002072151
70	0x3cabb791	0.020961555
71	0x3bffb3fe	0.007803439
72	0x3b8b8927	0.004258293
73	0x3c02736a	0.007962087
74	0x3cb212dd	0.02173751
75	0x3be0624f	0.006847657
76	0x3c4492f5	0.011997928
77	0x3c89e327	0.016831947
78	0x3c2917c1	0.010320605
79	0x3cb1936e	0.021676745
80	0x3cb40811	0.021976503
81	0x3c843ed7	0.016143246
82	0x3c1613be	0.00915998
83	0x3c109b41	0.008826078
84	0x3c3b82f8	0.0114448
85	0x3c2b5c68	0.010459043
86	0x3b881c84	0.00415379
87	0x3c55dd27	0.013053215
88	0x3bf71527	0.0075403634
89	0x3b3dadd6	0.0028942726
90	0x3ba85d67	0.0051380876
91	0x3b804222	0.0039141336
92	0x3c4f28e3	0.0126440255
93	0xbbae914a	-0.0053273784
94	0x39bb1b1b	0.00035687615
95	0x3b6ac9b2	0.0035825786
96	0xbbf8d1ee	-0.007593385
97	0x3c8c6cc5	0.01714171
98	0x3b0ba9e8	0.0021310989
99	0xbc1bfb8e	-0.0095204245
100	0x3bbc798a	0.0057517933
101	0xbb0f5136	-0.0021868474
102	0x3b717bc7	0.0036847459
103	0xbc528efb	-0.012851472
104	0x3c7d82df	0.015473097
105	0x3c86062f	0.01636037
106	0xbc27226f	-0.010201081
107	0xbb6cbfbc	-0.0036125025
108	0x3c70fdd0	0.014708951
109	0xbc6e0c2f	-0.014529272
110	0x3b6bd67a	0.0035985992
111	0xbc157d8c	-0.009124171
112	0x3c7e1478	0.01550781
113	0x3c39d8de	0.011343209
114	0x3c179a1d	0.009253052
115	0xb987178d	-0.00025766753
116	0x3bfd08ab	0.0077219806
117	0x3c5cc023	0.013473543
118	0x3cca67b9	0.024707662
119	0xbc534f0e	-0.012897266
120	0x3a82c297	0.0009976205
121	0xba4b3f76	-0.0007753292
122	0x3c4f9343	0.012669387
123	0x3bab367d	0.0052250014
124	0x3ca79315	0.020455876
125	0x3c4711ac	0.012150209
126	0x3c29364b	0.010327886
127	0xbc23007f	-0.009948849
128	0x3c819902	0.01582003
129	0x3c14ba17	0.00907757
130	0x3c542403	0.012948039
131	0x3ba7f2ad	0.0051253648
132	0x3cb45c91	0.022016795
133	0x3c41aff3	0.011821735
134	0x3cb85f12	0.02250627
135	0x3c1900a3	0.009338531
136	0x3bfd13ff	0.007723331
137	0x3b2eb795	0.0026659716
138	0x3c249233	0.010044622
139	0x3c414ecf	0.011798575
140	0x3bd5f494	0.0065294
141	0x3c816ca9	0.015798884
142	0x3c16fc52	0.009215431
143	0xbad73974	-0.0016420321
144	0x3c1f3cac	0.009719055
145	0x3c580ff6	0.013187399
146	0x3cf85ea4	0.030318566
147	0x3b500dbe	0.0031746472
148	0xbbe44ae3	-0.006966935
149	0xbc4a6187	-0.012352354
150	0xbca37bba	-0.019956458
151	0xbc0f9c1a	-0.008765245
152	0xbba8f0ee	-0.005155674
153	0xbc187dc6	-0.0093073305
154	0xbc308398	-0.010773562
155	0xbc2507ca	-0.010072658
156	0xbc267f86	-0.01016224
157	0xbc5c8ca5	-0.013461267
158	0xbadb8130	-0.0016746875
159	0xbbba4192	-0.005684086
160	0xbc1070f6	-0.0088159945
161	0xbb8fb6b8	-0.0043857954
162	0xbbd9900e	-0.006639487
163	0xbc034c57	-0.008013806
164	0xbbfeb3ae	-0.0077728843
165	0xbbf0bc69	-0.007346679
166	0xbbebdd81	-0.007198036
167	0xbbf46416	-0.0074582202
168	0xbbfb7fd9	-0.0076751527
169	0xbc34b46a	-0.011029342
170	0xbc0222b7	-0.007942847
171	0x3b8e7e50	0.0043485537
172	0xbb02826f	-0.001991417
173	0xbbe7fa16	-0.007079373
174	0xbbfdcd04	-0.007745387
175	0xbbda9d54	-0.006671587
176	0xbba82ca4	-0.0051322747
177	0x3a093378	0.00052338047
178	0x3bc58a8f	0.0060284804
179	0xb8d05f88	-9.936007e-05
180	0xbb67e1cd	-0.003538239
181	0xbbbb0013	-0.005706796
182	0xbbb26d78	-0.0054451786
183	0x3b3560a4	0.002767601
184	0xba59dd43	-0.00083108636
185	0x3bd27dd3	0.006423691
186	0xbaff355f	-0.0019470862
187	0x3b9e22d3	0.0048259287
188	0xbb785104	-0.0037890086
189	0xbb9257e2	-0.004466043
190	0xb910e468	-0.00013817998
191	0xbc295eca	-0.010337541
192	0x3a449886	0.00074995344
193	0x3b712a26	0.0036798804
194	0x39ca17fd	0.00038546315
195	0xbbb8ba9b	-0.0056374795
196	0x3bd8b4f0	0.0066133663
197	0x3a8fa862	0.0010960216
198	0x3b8d4203	0.0043108477
199	0xbb1f0967	-0.002426708
200	0x3a037fe3	0.000501631
201	0xbbb03243	-0.0053770854
202	0x3b6e2d41	0.0036342891
203	0x3c42ff6e	0.0119017195
204	0xbb7c0f3f	-0.0038461236
205	0x3b57af4f	0.0032910889
206	0xba853d58	-0.0010165377
207	0xba4fe7b5	-0.00079309504
208	0xbc06f0fc	-0.008236166
209	0x3b5851b1	0.0033007676
210	0x3c44de54	0.012015898
211	0x3be95f08	0.0071219243
212	0x3c8a2809	0.016864793
213	0x3bdf82d8	0.0068210177
214	0x3cd496a6	0.025950741
215	0x3ab7a580	0.0014011115
216	0x3c889883	0.016674286
217	0x3c654338	0.013993077
218	0x3c58aa00	0.013224125
219	0x3c33bdc1	0.010970534
220	0xbb051a59	-0.0020309894
221	0x3c111749	0.008855649
222	0xb879d34e	-5.956302e-05
223	0x3c2c6f0e	0.010524524
224	0x3b0eb6b2	0.0021776375
225	0xba8a1f3b	-0.0010537872
226	0x3b7477fb	0.003730296
227	0x3bb6d613	0.005579719
228	0x3b82e47d	0.003994523
229	0x3cc7e677	0.024401886
230	0x3c97e2a7	0.018540693
231	0x3cb34f44	0.021888383
232	0x3b48df86	0.0030650808
233	0xbc0b9453	-0.00851925
234	0x3c235301	0.00996852
235	0x3b9fd6ab	0.0048778853
236	0x3c2396c4	0.009984676
237	0x3c371acf	0.011175825
238	0x3cd71b79	0.026258217
239	0xbb193f82	-0.00233838
240	0x3b8c876c	0.0042886045
241	0xbc29aa4c	-0.010355543
242	0x3bf13847	0.007361445
243	0x3cdae4cc	0.026720427
244	0x3cacbe1a	0.021086741
245	0xbb9e28f8	-0.004826661
246	0xbc872394	-0.016496457
247	0x3b7932b4	0.0038024606
248	0x3bc14896	0.0058985455
249	0xbb7f450d	-0.003895107
250	0x3b67bf33	0.0035361766
251	0x3b149f0b	0.0022677805
252	0x3ca99649	0.020701544
253	0x3b7e7aab	0.003883044
254	0xbb295c6c	-0.0025842441
255	0xbba0a82e	-0.004902861

CCN.module.branch1.5.conv.bias f4 [8]
0	0xbbb00928	-0.0053721853
1	0x3c36b028	0.011150397
2	0xbc2935e9	-0.010327795
3	0x3bc6e0d5	0.0060692825
4	0xbc030981	-0.007997871
5	0xbb2c9d99	-0.0026339053
6	0x3b3cb855	0.0028796394
7	0x3c4d2ff8	0.012523644

CCN.module.branch2.0.conv.weight f4 [20, 3, 7, 7]
0	0xbc92811a	-0.017883826
1	0xbc666649	-0.014062473
2	0xbc9f73bb	-0.019464364
3	0xbc0fb6dc	-0.008771624
4	0xbca6addc	-0.020346574
5	0xbce2eff1	-0.027702304
6	0xbce255c9	-0.027628796
7	0xbaf878eb	-0.0018956935
8	0xbc0dbd24	-0.008651052
9	0xbc1cced1	-0.009570793
10	0xbc32de2c	-0.010917228
11	0xbc8a8674	-0.016909815
12	0xbcdbabd1	-0.026815327
13	0xbcd7db22	-0.026349608
14	0xbc858c38	-0.016302213
15	0x3870afdb	5.7384237e-05
16	0xbb26dee6	-0.0025462448
17	0xbc9824b7	-0.018572195
18	0xbc22262a	-0.009896794
19	0xbca89fa1	-0.02058393
20	0xbce394a3	-0.027780836
21	0xbb6cfd29	-0.0036161637
22	0x3bb8e2f5	0.0056422898
23	0x3b6cfb57	0.0036160552
24	0x3b6a36cc	0.0035738228
25	0xbba72933	-0.005101347
26	0xbc642913	-0.0139258085
27	0xbcb7cb96	-0.022435945
28	0xbaedee60	-0.0018152706
29	0xbb1f2582	-0.002428383
30	0x3938313f	0.00017565953
31	0x3b14b307	0.0022689716
32	0x3c40e034	0.011772204
33	0xbca7a571	-0.02046463
34	0xbc801c20	-0.015638411
35	0xba019915	-0.00049437705
36	0x3c92264f	0.017840533
37	0x3c56db22	0.013113769
38	0x3c5c73cf	0.013455345
39	0x3c3db059	0.011577689
40	0x39efd63a	0.00045745244
41	0x3b1f2355	0.0024282534
42	0x3c803034	0.015647985
43	0x3c52a0ea	0.012855748
44	0x3c917853	0.01775757
45	0xba38a973	-0.0007044293
46	0x3af214fa	0.0018469386
47	0x3b54a381	0.0032446089
48	0xbc4ac4cf	-0.012376024
49	0xbc93300c	-0.017967246
50	0x3c2b06f5	0.01043867
51	0xbbf7c9ec	-0.0075619128
52	0xbc4a5a72	-0.012350665
53	0xbc58aa57	-0.013224206
54	0xbca57137	-0.020195587
55	0xbc2fd436	-0.010731747
56	0x3be02f79	0.0068415967
57	0xbc09470a	-0.008378753
58	0xbbf55bd5	-0.007487754
59	0x3b16b7ff	0.0022997854
60	0x3a96c878	0.0011503836
61	0xbbb120be	-0.0054055145
62	0x3b529444	0.003213183
63	0x3bbfec3f	0.00585702
64	0x3c19d4ce	0.0093891155
65	0x3bab4718	0.005226981
66	0x3c3f68b2	0.011682676
67	0xbb109477	-0.0022061148
68	0xbc083453	-0.008313256
69	0x3a72c447	0.0009260815
70	0x3c46ad2c	0.012126248
71	0x3cce6efe	0.02519941
72	0x3c9b9b16	0.01899485
73	0x3c8ba16e	0.01704475
74	0x3c925ead	0.01786741
75	0x3a2034f5	0.0006111407
76	0xbb46ff94	-0.0030364739
77	0x3c748ebb	0.014926608
78	0x3c6db8aa	0.014509359
79	0x3c8ca4d7	0.017168446
80	0x3cb288d3	0.021793758
81	0x3ccbbf97	0.02487163
82	0x3b9c53c0	0.004770726
83	0x3b443652	0.0029939604
84	0xbb96f4b8	-0.0046068095
85	0x3cb34d3d	0.021887416
86	0x3cbd77f0	0.02312848
87	0x3c94eaec	0.018178426
88	0x3b799835	0.0038085107
89	0x3c0c5781	0.008565784
90	0x3beffcfb	0.007323859
91	0x3bdc9565	0.0067316764
92	0x3c50c794	0.012742896
93	0x3cbf27f3	0.023334479
94	0x3c2e295f	0.010629981
95	0x3bae20b3	0.0053139566
96	0x3c2b4a4b	0.010454725
97	0xbbbd83f5	-0.005783553
98	0x3b6bbe1a	0.0035971464
99	0x3bcadefb	0.006191132
100	0x3bf5f021	0.0075054322
101	0x3b0fc400	0.0021936893
102	0xbbde8ec3	-0.006791921
103	0xbc24931e	-0.010044841
104	0xb99d7f2d	-0.00030040127
105	0x3b796803	0.003805638
106	0x3af10341	0.001838781
107	0x3c172346	0.009224718
108	0x3c42516a	0.011860231
109	0x3bba537c	0.0056862216
110	0x3b8d2465	0.004307317
111	0x3c30d72b	0.010793488
112	0x3c151ccd	0.009101105
113	0x3c3ee974	0.011652339
114	0x3c15e460	0.009148687
115	0x3c0d9a86	0.008642798
116	0xbbd8c4cc	-0.006615257
117	0x3b44b0db	0.003001264
118	0x3b9d374e	0.0047978526
119	0x3c47c032	0.012191819
120	0x3d16f9ce	0.036859326
121	0x3c8de6f7	0.017322047
122	0x3cc0cf4f	0.023536352
123	0x3c569280	0.013096452
124	0x3c25c4e3	0.010117742
125	0x3be58547	0.0070044133
126	0x3c356b1b	0.011072899
127	0x3c2054bf	0.00978583
128	0x3c273aca	0.0102068875
129	0x3ce60c73	0.028082108
130	0x3c89ad5a	0.016806293
131	0x3b9a657e	0.004711806
132	0x3c089bc8	0.008337922
133	0x3c6f21cc	0.01459546
134	0x3d0963ca	0.033542432
135	0x3ccdf3a2	0.025140587
136	0x3c7018a1	0.0146543095
137	0x3cd8a663	0.026446527
138	0x3c0a700e	0.0084495675
139	0x3b88e566	0.004177737
140	0x3aa326ae	0.001244744
141	0x3c9a60e5	0.018845031
142	0x3c48634d	0.012230706
143	0x3c7b37e5	0.0153331505
144	0x3bfe57e7	0.0077619436
145	0x3bed0e99	0.007234406
146	0x3b203d65	0.0024450656
147	0x3c0b443d	0.008500156
148	0x3c02c6a2	0.007981928
149	0xbbbd0606	-0.0057685403
150	0xbb3714d3	-0.0027935996
151	0x3c0d9459	0.008641326
152	0xba454cc2	-0.00075263914
153	0x3b9666ab	0.0045898757
154	0x3c92787e	0.01787972
155	0xbaf88953	-0.0018961824
156	0x3a7c75e5	0.0009630605
157	0x3bfb6bf4	0.007672781
158	0xbc82549f	-0.015909491
159	0x3b85d622	0.0040843645
160	0xbb1b8c1a	-0.002373463
161	0x3b4b6790	0.003103707
162	0xbbdde9c1	-0.0067722504
163	0x3c2be7af	0.010492249
164	0x3b51839a	0.003196931
165	0x3be095e7	0.0068538073
166	0xbbef7390	-0.0073074773
167	0x3c68f4cf	0.014218523
168	0xbbd40b15	-0.0064710476
169	0x3ae53855	0.0017488102
170	0x3b953df9	0.004554507
171	0x3bf217f8	0.007388111
172	0x3bff3cb3	0.0077892183
173	0x39016679	0.00012340573
174	0x3b01bd78	0.001979677
175	0xbba06013	-0.0048942654
176	0xbbceb29f	-0.0063079144
177	0xbab5df3e	-0.0013875735
178	0x3baede34	0.0053365473
179	0x3a9b8b82	0.0011867138
180	0x3b7ce531	0.0038588757
181	0x3b196989	0.002340885
182	0xbb41d7cd	-0.002957809
183	0xbbe9f8ee	-0.0071402704
184	0x3b30bc68	0.0026967768
185	0x3c358ef1	0.011081443
186	0x3c4c8776	0.012483468
187	0x3bda4658	0.0066612177
188	0xbbbf03e6	-0.005829322
189	0xbb0291a6	-0.001992324
190	0x3b8831a5	0.0041563087
191	0xbbb61b31	-0.0055574407
192	0x38bcf58b	9.0102745e-05
193	0x3b8f7947	0.004378471
194	0x3caf701c	0.021415763
195	0x3c04e917	0.008112214
196	0x3c30d8df	0.010793894
197	0x3b62f045	0.0034628075
198	0xbacd199c	-0.0015647891
199	0xbb861105	-0.0040913844
200	0xbc9ff1e0	-0.019524515
201	0x3c6ef486	0.014584666
202	0xbbdd70eb	-0.0067578456
203	0x3bf631f5	0.0075132796
204	0x3c441093	0.011966842
205	0xbb2e78ad	-0.0026622221
206	0xba58202d	-0.00082445407
207	0xbc492f5a	-0.012279356
208	0xbb3fb84b	-0.0029254134
209	0xbb20eeed	-0.0024556473
210	0xb983295f	-0.0002501709
211	0x3bc05b02	0.005870224
212	0xb9391ba8	-0.00017653278
213	0x3bb8f9a0	0.005644992
214	0xbac00250	-0.0014649127
215	0xbbbb8fc9	-0.0057239276
216	0xbc4e4c68	-0.012591459
217	0x3b81325d	0.0039427713
218	0xbb353a95	-0.0027653326
219	0x37955308	1.7800849e-05
220	0x3b510c35	0.0031898145
221	0x3c25f827	0.010129965
222	0xbc24a912	-0.010050075
223	0xbc802586	-0.015642893
224	0x3c092799	0.008371257
225	0xbb9606c3	-0.004578443
226	0x3b14ebbc	0.0022723516
227	0x3b2e8318	0.002662843
228	0x3c4a193e	0.01233512
229	0xbba1d91b	-0.004939211
230	0xbb750421	-0.0037386494
231	0xbb902337	-0.004398729
232	0xbbffc1ca	-0.007805084
233	0xbb75682f	-0.0037446131
234	0xbba7bf27	-0.0051192227
235	0xbc5c8087	-0.013458378
236	0xbb278bdd	-0.0025565543
237	0xbb81321f	-0.0039427425
238	0x3c2ab369	0.010418751
239	0xbc539426	-0.012913739
240	0x3b17b0e0	0.0023146197
241	0x3b22b961	0.0024829733
242	0x3966e809	0.00022020949
243	0xbc274509	-0.01020933
244	0x3a8e0cc3	0.0010837544
245	0x3c694735	0.0142381685
246	0xbc6ce58f	-0.014459028
247	0xbb7e6646	-0.0038818284
248	0xbc31e096	-0.010856768
249	0xbb7086d2	-0.0036701453
250	0xbb1af8c0	-0.0023646802
251	0xbc886409	-0.016649263
252	0x3c396ecf	0.011317923
253	0xbb635337	-0.003468705
254	0xbc591d43	-0.013251605
255	0xbc3492d1	-0.011021332

CCN.module.branch2.0.conv.bias f4 [20]
0	0x3cbd7970	0.023129195
1	0xbb64bc08	-0.0034902114
2	0x3ad5dbe8	0.0016316148
3	0xba616462	-0.0008598027
4	0xba004dd5	-0.00048944104
5	0x3a7c940b	0.0009635097
6	0x3ad6bd4e	0.0016383321
7	0xbb9c2810	-0.004765518
8	0xbb8eb070	-0.004354529
9	0x39f27f08	0.00046252483
10	0xba7014c4	-0.0009158368
11	0xba6b5c78	-0.00089783175
12	0x3c602481	0.013680578
13	0x3c992c93	0.018698012
14	0x3be94456	0.007118742
15	0xbb60a10a	-0.0034275674
16	0xbb89d3be	-0.00420615
17	0x3b5df1c4	0.0033866027
18	0xbaf4cf00	-0.0018677413
19	0xbb871a4c	-0.004123008

CCN.module.branch2.2.conv.weight f4 [40, 20, 5, 5]
0	0x3b35ec67	0.0027759315
1	0xbb476f8a	-0.0030431473
2	0xbbac71ae	-0.005262575
3	0xb9c86068	-0.000382188
4	0xbb3cf7df	-0.0028834266
5	0xbb3cd0eb	-0.0028811048
6	0xbb56da5c	-0.003278396
7	0xbc9ff16c	-0.019524299
8	0x3aff05ca	0.0019456681
9	0xbc34a2f6	-0.011025181
10	0xb8984af8	-7.261889e-05
11	0xb97fdb9b	-0.00024400504
12	0x3b11c1f2	0.0022240845
13	0xbb2bec72	-0.0026233462
14	0xbb15b19a	-0.0022841454
15	0xbbfcf42d	-0.0077195377
16	0x3ba272a2	0.004957513
17	0x3b44b6f7	0.0030016282
18	0xbc75b355	-0.014996369
19	0x3b533211	0.0032225887
20	0x3c248e65	0.010043715
21	0xbb574270	-0.0032845996
22	0xbb461150	-0.0030222721
23	0xbcb3081a	-0.021854449
24	0xba0701fd	-0.00051501376
25	0x3aa7a451	0.0012790059
26	0x39c99dcb	0.00038455272
27	0x3ab56e64	0.0013842103
28	0x3b261cc5	0.0025346738
29	0x3b0496f3	0.0020231574
30	0x3b6a2a21	0.0035730677
31	0x3b3722db	0.002794436
32	0x3a9e81de	0.0012093147
33	0x3b50ef68	0.0031880978
34	0x3b375489	0.002797397
35	0x3bf619a8	0.0075103827
36	0x3af42e32	0.001862949
37	0xbae97049	-0.0017809953
38	0x3b4616bf	0.003022596
39	0x3c56dab6	0.013113668
40	0x3b6038ac	0.0034213467
41	0x3b02c25a	0.0019952268
42	0x3bb98e28	0.0056626983
43	0x3b970890	0.004609175
44	0x3b33a332	0.0027410504
45	0x3b8b340e	0.0042481488
46	0x3ac81513	0.001526507
47	0xbae0d9e4	-0.001715478
48	0x3b542122	0.0032368382
49	0x3b22756f	0.0024789234
50	0xbb87212d	-0.004123828
51	0xba2bee3a	-0.0006558631
52	0x3ab643e9	0.0013905737
53	0xbbba4f48	-0.0056857206
54	0xbbd3e03d	-0.0064659403
55	0x3b5cbf7a	0.0033683465
56	0xbbc45992	-0.005992123
57	0xbb09cde7	-0.0021027268
58	0x39e092bd	0.00042833938
59	0x3b4d468f	0.0031322574
60	0xbbe5efce	-0.0070171123
61	0x3b2b3528	0.0026124213
62	0xbbfc0481	-0.0076909666
63	0xbbbf907a	-0.0058460804
64	0x3ac01d22	0.001465712
65	0x3aabce74	0.0013107792
66	0x3c812150	0.015762955
67	0x3bf6c5f7	0.0075309235
68	0x3b8198b4	0.003954971
69	0x3a8cc004	0.0010738377
70	0xbacdfb31	-0.001571512
71	0x3b380dc4	0.0028084377
72	0xbb0002e3	-0.001953297
73	0x3ab4a3e2	0.0013781751
74	0xbb263452	-0.0025360775
75	0x3bdbb8cb	0.0067053786
76	0x3c328d6a	0.010897974
77	0x3aa53705	0.0012604898
78	0x3b885783	0.004160823
79	0xbba2ed1e	-0.004972114
80	0xbc29287b	-0.010324593
81	0xbb6196d0	-0.0034422167
82	0xba758374	-0.00093655963
83	0xb9f954e0	-0.00047556218
84	0xbb6ec43f	-0.003643289
85	0xbb8926d8	-0.0041855387
86	0xb90abf0e	-0.00013231879
87	0xbad41b68	-0.0016182484
88	0xba9463e9	-0.001132128
89	0x39ca5927	0.00038594866
90	0x3919b588	0.00014658843
91	0xbbef3a0c	-0.007300621
92	0xbc0f112d	-0.008732122
93	0xbac096a0	-0.0014693327
94	0xbbc865c4	-0.006115647
95	0xbb1c8c95	-0.0023887504
96	0x3b4df741	0.0031427892
97	0x3be1f20c	0.0068953093
98	0x3ad86fd1	0.0016512816
99	0xbc634aa2	-0.013872774
100	0xbb236863	-0.0024934046
101	0xbc010863	-0.007875535
102	0x3ba5723b	0.0050490177
103	0x3ae1293a	0.0017178424
104	0x3b92d7c5	0.004481288
105	0xbb694b97	-0.0035598034
106	0x3b0c2740	0.00213857
107	0xbb8bbb40	-0.0042642653
108	0x3c966f15	0.018363515
109	0x3be4de72	0.0069845254
110	0xbb04d009	-0.00202656
111	0x3bfd1f4a	0.007724677
112	0x3bf3592f	0.007426403
113	0x3bb131fd	0.0054075704
114	0x3c560705	0.013063197
115	0x3c7d5401	0.015461923
116	0x3c521ab6	0.012823751
117	0x3be8f3ea	0.007109155
118	0xbbc2dcc5	-0.005946728
119	0x3c16707d	0.009182093
120	0x3be5f888	0.0070181526
121	0xba2d6a52	-0.0006615269
122	0xbbc61543	-0.006045015
123	0x3c00ccbf	0.007861315
124	0x3c017f77	0.007903925
125	0xba0607f6	-0.00051128806
126	0xbb54b9cd	-0.0032459379
127	0x3b266e54	0.002539535
128	0x3b119bff	0.0022218225
129	0x3bed35f6	0.0072390987
130	0xba81e18e	-0.000990914
131	0x3bf592a7	0.007494289
132	0x3bbd6460	0.005779788
133	0x3c16768d	0.009183538
134	0x3c20f59c	0.009824183
135	0xbb739faa	-0.0037174025
136	0x3c2642de	0.010147778
137	0xbb3ef5df	-0.002913825
138	0xb9a70001	-0.00031852725
139	0x3b24de93	0.0025157079
140	0x3c1a0c4e	0.009402348
141	0x3a72429f	0.00092414947
142	0x3bb4c767	0.0055169347
143	0x3ba96d4f	0.0051705013
144	0x3aab05f7	0.0013048042
145	0x3c586c70	0.013209447
146	0x3b4c7d1a	0.0031202496
147	0x3b19e9cf	0.0023485308
148	0x3be6d4d8	0.007044416
149	0xba407327	-0.0007341378
150	0x3bbb91f4	0.005724186
151	0x3b293c20	0.002582319
152	0x3b351a9f	0.0027634276
153	0x3b1271c5	0.0022345644
154	0x3ba08d2e	0.0048996424
155	0xbb9df88b	-0.0048208884
156	0xba55152d	-0.00081284606
157	0x395fbdba	0.00021337616
158	0xbb126721	-0.0022339302
159	0xbaa33a8d	-0.0012453363
160	0xba2b8172	-0.0006542421
161	0xbbc17a86	-0.0059044985
162	0xbaa1ce7c	-0.0012344862
163	0x3b84bbc4	0.0040507037
164	0xbac47798	-0.0014989255
165	0xbac6639c	-0.0015135887
166	0x3ad3da30	0.0016163047
167	0x396637fe	0.00021955368
168	0x3a29e613	0.0006481122
169	0x3bb50707	0.0055245194
170	0xb9a2b19c	-0.00031031377
171	0xbb4a5047	-0.0030870603
172	0xbc0dafc7	-0.008647866
173	0xba04b5f8	-0.0005062516
174	0xb9d0e1f4	-0.000398412
175	0x3a2aa169	0.00065090373
176	0x3b811cbf	0.0039401944
177	0xbb3aa37d	-0.0028478794
178	0x3afe4c32	0.001940137
179	0xbad6e4bc	-0.0016395072
180	0x3bd603ee	0.00653123
181	0x3c06dd75	0.00823151
182	0x3b8a4df0	0.0042207167
183	0xbb15b164	-0.0022841329
184	0x3bc6dcaf	0.006068788
185	0x3be42f6f	0.0069636623
186	0x3c0ad212	0.008472936
187	0x3bbf84bb	0.00584468
188	0x3bd795b5	0.0065791258
189	0x3b8f1bc1	0.004367322
190	0x3b46fec6	0.003036426
191	0x3bb27530	0.0054460987
192	0x3bb99cbc	0.005664436
193	0x3b9c514f	0.004770435
194	0x3ab59b9b	0.0013855578
195	0xba6bfac6	-0.0009001907
196	0xba164f74	-0.00057338853
197	0x3c6cacda	0.014445508
198	0x3bf1ca97	0.007378887
199	0x3a9577e2	0.0011403526
200	0xbb977e08	-0.0046231784
201	0xbb481c79	-0.003053455
202	0x3b78e3a7	0.0037977488
203	0xbb75bb49	-0.0037495664
204	0xbb073311	-0.0020629803
205	0xbb18b650	-0.0023302026
206	0x3b0097fc	0.001962184
207	0xbb1a4041	-0.0023536833
208	0xbb5c7e88	-0.0033644754
209	0xbba55244	-0.005045207
210	0xbbe88edd	-0.0070971088
211	0x3b319204	0.0027095089
212	0x3c4c06e3	0.012452814
213	0x3c269cdf	0.010169237
214	0x3b811175	0.0039388486
215	0x3ba522c4	0.005039545
216	0xbb2ed3eb	-0.0026676606
217	0x3a744bea	0.00093191734
218	0x3b9c5b31	0.004771613
219	0x3bb3c4d1	0.005486109
220	0xbb98e409	-0.004665856
221	0x3c0ae4e9	0.008477428
222	0x3c495972	0.012289392
223	0xbb0e2b72	-0.0021693376
224	0xba5e884d	-0.00084889383
225	0xbb41e40b	-0.0029585387
226	0x3bd662bd	0.0065425322
227	0x3bfdfc3e	0.007751017
228	0x3b61be53	0.0034445717
229	0xbb9c753f	-0.004774719
230	0xbb31b198	-0.002711391
231	0x3c255119	0.010090136
232	0x3b8ab10f	0.004232533
233	0x3b8193a2	0.003954367
234	0x3b158788	0.0022816379
235	0x3bde2773	0.006779605
236	0x3c5102b9	0.012756997
237	0x3bde02e4	0.006775247
238	0x3bd55f9f	0.006511643
239	0x3b8d23bd	0.004307239
240	0x3c095d06	0.008383995
241	0x3bc786a5	0.006089049
242	0x3b9ca405	0.004780295
243	0xbb2fb5dd	-0.002681128
244	0x3b50e121	0.0031872469
245	0x3bd6a996	0.006550978
246	0x3c58aa9e	0.013224272
247	0x3c50e2c9	0.012749382
248	0x3bd01df4	0.006351227
249	0x3a9f63ef	0.001216052
250	0xbb3edd1e	-0.0029123495
251	0x3b4375e3	0.0029824905
252	0x3a4749e1	0.00076022564
253	0x3ba0a2df	0.0049022282
254	0xbbd1f3f8	-0.006407257
255	0x3b5d49d3	0.0033765926

CCN.module.branch2.2.conv.bias f4 [40]
0	0xbbc57e6f	-0.006027035
1	0xbb212d79	-0.0024593754
2	0x3bfd6662	0.0077331522
3	0xbb815d42	-0.003947885
4	0xbb244ac2	-0.0025068973
5	0xbb130643	-0.0022434152
6	0xbb2fdc60	-0.0026834235
7	0xbaa4216b	-0.0012522166
8	0xbb84bb4d	-0.0040506483
9	0xbaeb25c8	-0.0017940337
10	0xbbaf06e0	-0.0053413957
11	0xbae901db	-0.0017777042
12	0xbb9266f2	-0.0044678384
13	0xbb143d85	-0.0022619676
14	0x3c9b7ba7	0.01897986
15	0xbb4c64ab	-0.0031187932
16	0xbbb10e42	-0.005403311
17	0xbbb06165	-0.005382704
18	0xbba472f9	-0.0050185886
19	0xbb3c93d6	-0.002877464
20	0xbb9a4bb6	-0.0047087325
21	0xba44c192	-0.0007505651
22	0x3acd52b0	0.0015664902
23	0xbb93c130	-0.0045091137
24	0xbb9215e2	-0.004458175
25	0xbb8be195	-0.004268835
26	0xbb0fe112	-0.002195422
27	0xbba4d9d8	-0.005030852
28	0xbbad4626	-0.0052879034
29	0xbb966af4	-0.0045903865
30	0xbb4d4116	-0.0031319312
31	0xba9f2aed	-0.001214353
32	0x3b958ca0	0.004563883
33	0xbb9078e6	-0.0044089435
34	0x3c809cb5	0.015699724
35	0xbb1d7923	-0.0024028502
36	0xbb6def89	-0.0036306104
37	0xbb8a8f37	-0.0042284983
38	0x3c8e6e89	0.017386692
39	0x3c85f8f2	0.016354058
